Assets/models/Chase-83362.onnx (onnx, 72639 bytes, 7 tensors)

action_model._continuous_distribution.log_sigma f4 [1, 2]
00000000: 9cd8 5bbe 6e72 2dbe
-0.21469349 -0.16938183

action_model._continuous_distribution.mu.bias f4 [2]
00000000: a48f 17bd 999b 573a
-0.03700222 0.0008224785

action_model._continuous_distribution.mu.weight f4 [2, 128]
00000000: 8c20 133c 0092 6cb9 7ef4 ab3c 2968 e4b9
00000010: 7e79 2dbc f654 f0bb a40b c9b9 616a 023b
00000020: 8af7 603c 052a 99bb 0e28 7438 0d3e 05bb
00000030: 5b95 88ba b6a2 58bc 91dc 463c bf7b 803b
00000040: 26ad fabc d3ec c238 1a9a b53b 07d6 673c
00000050: ae42 b53a 9d7c 1b3a c95f b63c 36c0 933b
00000060: 4d12 e538 13bb 87bb 9927 c8bc fb23 09bd
00000070: ea8e 443a 921a 993c 17eb 413c 465a d8ba
00000080: fc2c 193b 1e47 adbc 28f5 dd3a 9808 57ba
00000090: a995 723a de8c 793b 8c10 893d 8d97 35bb
000000a0: 23f9 e8bc 20ad 55bb ce9a 42bc 9e7c 4bbd
000000b0: 1c0f 9a3b a45d 453a 1932 0cbc 898d dcbc
000000c0: 0fce 38bb 1588 1a3b ec01 bebb 6aca 5dbd
000000d0: 8eb0 c0bc 6626 003d 7131 4f3c f792 8aba
000000e0: 86f5 393b 668b 8abb dce3 cebc 7980 39bb
000000f0: bef6 35bb 6e34 ad3a cd3f 5e3c 5cbf 7f3c
00000100: e85e b13a a6f9 80bb d5d9 ac3b 27ae d53c
00000110: 169b c3bc 6ccd 833b aa83 97bb fd84 3fba
00000120: 23c9 893b f878 66ba 3ff3 92bc b1a0 b43b
00000130: 5315 fcbb 3160 a53b 7d34 38bb 7304 ffba
00000140: 3e4a 8fbb 8407 cbbb 505d a43c e084 6c3b
00000150: aa24 043d a6ad f03b 0400 04bc c6ac 8b3c
00000160: faa2 0bbc 6565 2ebc 1afc 8c3c cca7 e23c
00000170: 2dea 77bc 1d19 23bd 4e47 24ba 4a8d 40bc
00000180: e14d 3e3b 32b3 cc3c 7cbd cb3b 3bf7 e538
00000190: 4895 fc38 6733 0dba ac1f 29bd 0e60 163b
000001a0: 87f8 0cbc c2d1 553b 3144 abbc 8aba 0f3b
000001b0: 640d cd39 40b8 76bc d809 3c3c 5e14 923b
000001c0: 9182 553a 225b 05ba 55f9 8cba 05f8 353b
000001d0: 6100 033b e85d 8b3b e4d8 f9bb 3aaa 43bc
000001e0: a499 833b 3325 90bc c07d 75b7 e6a5 f3bc
000001f0: 3cf5 893c 7793 003b e44a ff3c 2cd6 16bd
00000200: f2a7 7ebb f8e6 3b3b 9a8a f5bb 8891 2b3b
00000210: 28df a43c da61 043c 5f8d 1c3c 3ac1 78bc
00000220: a585 f9bc ddf1 4f3d 7f91 0b3b 8366 883b
00000230: a1b5 963b 3c66 293c e37f d43c b1b2 72bb
00000240: 523f d93c 869c f8ba 321a 09bb 6133 8c3c
00000250: 51fe 14bb 53ac e53b 06ef 153d 1b0c 193d
00000260: 23c2 333c 102f dabb 747b 20bd 1d99 f13c
00000270: 50bf df3b fa26 9bbc d0b3 1ebc 0179 043d
00000280: 020c 92ba c4d2 4c3d 9c67 8ebb a208 2f3c
00000290: ed77 bcbb 4d26 4ebb 8f20 1a3b 5730 123c
000002a0: 88dc 513b 808e 1bbb 53f0 243c a527 88bb
000002b0: 3703 36bc 51a3 0bbc 5c09 003c cb4d 463d
000002c0: 0c4c e0bb 8ccb 50ba 8807 5e3c 3874 13bc
000002d0: 1020 2a3c 7e77 52bc ace9 df3a 1d78 86bb
000002e0: 407b abba 0ce0 06bc e798 833c 9070 efba
000002f0: b4a1 5e3c d271 cfba 6637 4abd a32a 9e3c
00000300: 6693 26bd 9ee6 953a 4619 25bb d6b9 fbbc
00000310: 3450 bc3c 9dae 483b 6fa9 db3b ce97 a9bb
00000320: a745 773a d5af 19bc 739f 953c 9810 023c
00000330: 31a8 a83b e19f afba a2ce b63c 0fd9 c23b
00000340: 1c20 023b 8cef 16bc 9ac2 06ba b383 05ba
00000350: 0519 39bc d586 8fbb dc8e 583c 5f48 11bb
00000360: 3fbe 3e3c a7bb 2e3c 7332 3a3c c80b 4a3d
00000370: 5240 10bd fc4b ceba b55a e7ba 763f 7fbd
00000380: 19c4 893c b9b2 943d e86e cebc a434 da3b
00000390: ce58 413d df4c 1ebc 9034 e03b 205c 95bc
000003a0: e42f 0dbb 163b 9abb a856 233c 2f8f 2c3b
000003b0: 8489 fb3a dccb 93bc 2483 80bc 5d75 993c
000003c0: b410 f8b8 165b 723a dca0 403b 19ba 01bc
000003d0: bfec 813b 4e2e f5bb a1f6 90bd 51b9 8a3c
000003e0: f4dd 07b7 4676 933c 9b4c 6db9 1ace 713c
000003f0: 1570 ea3c c8fd 2f38 43ad efba f3d3 023d
0.008979928 -0.00022561103 0.020990606 -0.00043565154 -0.010588048 -0.007334347 -0.0003834638 0.0019899833
0.013730893 -0.0046741986 5.8211437e-05 -0.0020331175 -0.0010420488 -0.013222387 0.012137548 0.0039210017
-0.030600142 9.294753e-05 0.005542052 0.014150149 0.0013829076 0.00059313496 0.02226247 0.0045089973
0.0001092298 -0.004142174 -0.024432944 -0.03348158 0.00074981025 0.018689428 0.011835835 -0.0016506396
0.002337276 -0.021152075 0.0016934024 -0.00082028797 0.00092538685 0.0038078348 0.06692609 -0.002770874
-0.02843911 -0.0032604411 -0.011877729 -0.04967939 0.004701508 0.0007528907 -0.008556866 -0.026922958
-0.0028198992 0.0023579646 -0.005798569 -0.054148115 -0.023521688 0.03128662 0.012646065 -0.0010572363
0.0028375103 -0.0042280434 -0.025255136 -0.0028305335 -0.0027765478 0.0013214478 0.013565016 0.0156095885
0.0013532313 -0.0039360104 0.005274991 0.026084019 -0.023877662 0.004022291 -0.00462385 -0.00073058886
0.0042048856 -0.00087918295 -0.017938254 0.00551232 -0.0076929717 0.0050468673 -0.0028107457 -0.0019456282
-0.004372864 -0.0061959643 0.020064026 0.0036089942 0.032261528 0.0073449193 -0.008056644 0.017050158
-0.008522743 -0.0106442915 0.017210055 0.027667902 -0.015131515 -0.03981887 -0.0006266729 -0.011752436
0.0029038119 0.02498779 0.0062176567 0.00010965621 0.00012044102 -0.00053863827 -0.04128997 0.0022945437
-0.008604175 0.0032626246 -0.02090654 0.0021931254 0.00039110624 -0.015058577 0.011476956 0.0044579944
0.0008144761 -0.0005087127 -0.0010755459 0.002776624 0.001998924 0.004253138 -0.0076247323 -0.011942441
0.004016118 -0.017595863 -1.4632416e-05 -0.029742192 0.01684057 0.0019619146 0.03116364 -0.036825344
-0.0038857427 0.0028671604 -0.0074933292 0.0026179273 0.02012594 0.00807997 0.00955519 -0.015182788
-0.030459234 0.05076777 0.002129644 0.004162611 0.0045992886 0.010339316 0.025939887 -0.0037032778
0.026519451 -0.0018967546 -0.0020920155 0.017114343 -0.0022734592 0.007009068 0.036604904 0.03736506
0.010971579 -0.0066584423 -0.039180234 0.029491955 0.006828226 -0.018939484 -0.009686425 0.03234196
-0.0011142495 0.05000569 -0.0043458473 0.010683211 -0.005751601 -0.0031455935 0.0023517942 0.008922658
0.0032022316 -0.002373606 0.010067063 -0.0041551166 -0.011109165 -0.008522824 0.007814731 0.048414033
-0.006845003 -0.0007964901 0.0135516 -0.008999877 0.010383621 -0.012845872 0.001708319 -0.004103674
-0.0013082996 -0.008232128 0.01606412 -0.0018267799 0.013588358 -0.0015826768 -0.04936924 0.01930744
-0.040667914 0.0011436527 -0.0025192066 -0.030728262 0.022987463 0.0030621656 0.0067035477 -0.005175567
0.0009432681 -0.0093803005 0.018264508 0.007938527 0.005147003 -0.0013399088 0.022315327 0.0059462856
0.0019855564 -0.009212386 -0.0005140692 -0.0005093172 -0.011297469 -0.004380087 0.013217654 -0.002216838
0.011642038 0.010664857 0.011364567 0.04932764 -0.03521759 -0.0015739198 -0.0017650934 -0.06231638
0.01681714 0.07260651 -0.025199369 0.0066591073 0.04720383 -0.009661882 0.0068422034 -0.018232405
-0.0021543438 -0.0047067506 0.009969391 0.0026330461 0.0019190763 -0.018041544 -0.015687533 0.018732721
-0.00011828673 0.000924514 0.0029392755 -0.007917904 0.00396499 -0.0074823266 -0.07078291 0.016934069
-8.0983045e-06 0.018000733 -0.00022630619 0.014758611 0.028617898 4.1959604e-05 -0.0018285889 0.03194041

network_body._body_endoder.seq_layers.0.bias f4 [128]
00000000: 0b5d 92bd 47e9 ccba 4e13 29bd 22cb 75bd
00000010: 8ebf 5d3d 2b17 2fbd 6cd5 233c 2dc5 a3bd
00000020: 56ab 063d 6cfd bebc 3c6c 313d 5415 a2bd
00000030: 37b1 27bb aed8 afbc 62f5 7c3d c179 53bd
00000040: 91e7 47bd 14fe 123c 0099 523c e977 c5bc
00000050: ecc6 abbd 2ee8 b9bc 684d b7ba d848 cdbd
00000060: 3427 c6bc 4047 ddbd 4272 a2bd 75ce adbd
00000070: 6121 f1bc 73d4 afbc 6b0a a8bd aa90 85bd
00000080: 2f42 883b f447 52bb 6604 0abd e3cc 1c3b
00000090: 70a3 e93c fb1f 88bd ef57 6c3d 30af eabc
000000a0: 2fcc 0fbd e15b 5abd 9d14 d3bc f7ea 943b
000000b0: 191b 6ab9 ce21 cabc d9f5 323a 0bf8 83bc
000000c0: e7c0 d93c 357c bcbc ca30 6b3d 3028 b6bc
000000d0: 32e5 d3bd 38b8 ccbc 2d27 1fbd 5c43 cb3c
000000e0: 8b73 d43c fa0a c63c 019a c7bc 94d7 573d
000000f0: 478d 8fbd 195d de3c 772d 77bd 65bc fcbc
00000100: 13da 84bb b3cd c0bc 94ac 9cbc 6fe3 5cbd
00000110: e087 55bd 68c1 a03a 835f babc e7dd d5bc
00000120: 43f7 813d 8a07 6ebd 37d4 3abb fdf0 b4bc
00000130: 5d6b 6a3d 5ce8 40bd ac51 acba ab84 ed3d
00000140: 6b7c 9fba 384f 0abd 295f 803c 633e 8b3d
00000150: 4897 33bc c396 2b3c 1c50 d23c 0a82 40bc
00000160: 6de7 57bd d907 443c 6221 c6bd 3086 67bd
00000170: 817d 9fbc 4833 b43c 6f92 46bd e1fc f4bb
00000180: 27e4 bbb4 372e 20bd 5d98 2dbd d540 43bd
00000190: 38ce 3bbd 48cd 4ebd f9b5 67bd 5514 66bd
000001a0: 7848 13bd 0491 babc bb76 6e3d c8c8 773b
000001b0: d380 21bd 37f8 98bc 4b21 5b3b 8889 bcbc
000001c0: b279 ecbc 45e9 333c 72ad febc ad34 c93b
000001d0: cd83 acbc 6cb4 02bd 3526 133d 2021 b7bd
000001e0: e6ef 10bb ab72 aebd e637 343c 93ea 903d
000001f0: 8f5f 2b3d 5f95 d0bc 3045 103d 3bc9 453c
-0.07146653 -0.0015633487 -0.041278176 -0.060008176 0.05413776 -0.042746704 0.009999614 -0.07996593
0.032878242 -0.0233142 0.04331611 -0.07914224 -0.0025587806 -0.021465626 0.061757453 -0.051629785
-0.048804823 0.00897171 0.012853861 -0.02410503 -0.08387551 -0.02269372 -0.0013984861 -0.100236595
-0.024188615 -0.108046055 -0.07931949 -0.08486644 -0.029434862 -0.021463608 -0.08205112 -0.06521733
0.0041582803 -0.0032086344 -0.0336956 0.0023925833 0.028520316 -0.06646725 0.057701048 -0.028647989
-0.035106834 -0.05331028 -0.025766665 0.0045446116 -0.00022326074 -0.024674322 0.0006826795 -0.016109487
0.02658124 -0.023008445 0.057419576 -0.02223596 -0.1034645 -0.024990186 -0.03885572 0.024812393
0.025934001 0.024175156 -0.024365427 0.052695826 -0.070093684 0.027144002 -0.060346093 -0.030851552
-0.004054317 -0.023535585 -0.01912526 -0.053927835 -0.052131534 0.0012264671 -0.022750622 -0.026106788
0.063459896 -0.05811266 -0.0028507838 -0.022087568 0.057231296 -0.047096595 -0.0013146899 0.1159757
-0.0012167817 -0.033766955 0.015670376 0.06799009 -0.010961361 0.010472956 0.025672965 -0.011749754
-0.05271094 0.011964762 -0.09674336 -0.056524456 -0.019469025 0.021997109 -0.048479494 -0.0074764346
-3.4997467e-07 -0.039106574 -0.042381633 -0.04766925 -0.045850962 -0.05048874 -0.056570027 -0.056171734
-0.035957783 -0.022774227 0.0582187 0.0037808884 -0.039429497 -0.018673046 0.0033436592 -0.023014799
-0.028866623 0.010980909 -0.031088565 0.0061403126 -0.021058941 -0.031910345 0.03592511 -0.08941865
-0.0022115647 -0.08517965 0.010999655 0.070759915 0.04183918 -0.02546185 0.035222232 0.012071903

network_body._body_endoder.seq_layers.0.weight f4 [128, 6]
00000000: f079 373e 1b5b 34be fa1f 9bbd e246 c33d
00000010: 2874 403e 0838 9fbe 78cb a43e b97c d0be
00000020: 61f4 69bf 37c8 69be 239f 4b3e 3cf2 87be
00000030: 89fc cf3c 46a2 86be 1658 b0bc 1ae9 26bf
00000040: 2022 0d3e da35 99be ff81 5fbd 79ab 183f
00000050: c242 91bd 1378 89be ed72 1cbb bda7 43be
00000060: 79f9 133f 0c0e c23e 2e6c ddbe ec3f b93e
00000070: c749 1f3f e22f 71bc a73f 90bd d3d4 333e
00000080: ccd6 c0bd fb66 a83e bc15 cf3e f496 2fbf
00000090: cf2f b23e 1b72 113f 5228 9d3d cc24 69bf
000000a0: 315e 883e 9af4 e8be 4ed7 fdbe 7537 633c
000000b0: a37a bb3e 044f 863e 3e21 1abe f25f 9f3d
000000c0: 617c 51b9 ae35 c33e 9cef 75bc 9228 9ebe
000000d0: 0bba 273f f77a abbe 1da1 bebe 66a4 523e
000000e0: c758 3a3f 93a4 7b3f d3a1 dbbe f5aa eebe
000000f0: 3a12 6a3e d315 d23e 3b3c 22bd 36eb 3abf
00000100: 3afd 42be 74e9 d6be e65f 79bf 5ac1 c9be
00000110: 42a2 ac3e cf17 343f e4e5 b73e 1934 cb3d
00000120: d67c 1e3e 1b6d c83d 64cf 90be abae a83e
00000130: 25f3 15be 6c26 ae3e 0698 663b a0db f8bd
00000140: 2be6 c2be 3bab 83be 9aec 923e f0c7 693e
00000150: daa9 473e 88c0 97bd 09fd d03b 4d3b fe3e
00000160: 7b4c 063d a225 58be f8dc 093f 57d3 95be
00000170: 20e0 f53e cab2 a4be 44f9 18be 71f1 7b3e
00000180: 526e 3c3f f879 cb3e 91ad 3a3f 58d9 ca3e
00000190: f0c6 0fbc 950e ab3e 7342 423d 556b 483d
000001a0: e18f a43c 2944 fa3e 738a 0dbf fb40 7dbc
000001b0: b888 d4be 70c9 cb3e 2ef9 9ebe 2bb5 cfbe
000001c0: 1bd4 dcbe 3210 babe 6b52 e53e 9108 9d3e
000001d0: c376 d5be 650f 103f c244 a8be d515 9f3f
000001e0: 672f f3bd 9d9e 533e da26 fa3e c2d0 2abe
000001f0: 01cf a43e 7545 4f3e 2bb5 3abb 3e49 0cbf
00000200: 4e3f 033d f4d7 1fbf 8b4f 05bf 9f12 153e
00000210: 3bdd a6bd ec29 24be e063 bd3d ae1a a7be
00000220: 4d9a 0e3f 4e79 4ebe 2cd1 5abd 6846 90bd
00000230: 26ef 32bf 2951 a43d 0f5b 05be 1b35 10bc
00000240: 7a2b d93e 03e5 2639 f87c acbe d697 ecbd
00000250: b9cb e5be 1acb 813d 0d02 63be b3f9 653e
00000260: 24e9 f9be 82d1 df3e 4aee a3be 066e b1bc
00000270: 80d9 32bf 801b 4cbe 6329 1b3f 1a3c 92be
00000280: d296 003f 1523 033e 4bd8 bd3c b3e1 833d
00000290: 17ae 5cbd 5b9e 1ebe e694 b03d 1248 8a3f
000002a0: 0580 1e3d 80e4 383e 05c1 de3d cea1 883e
000002b0: 85fa e1be 968d 72bf f9bb e73e 8627 613e
000002c0: e630 ea3e c3fe c53e 7a3a d03e 1894 a6be
000002d0: 86a3 e03e 701c 92be 119d 833e cad2 cd3e
000002e0: 37b2 9dbf fa41 96be e5e9 01bf 772a c6be
000002f0: 9a7b b1be 0962 793d c253 023e 697e 04be
00000300: 7a51 a1be 7d43 ddbe ee3a dd3c ef7b 7c3e
00000310: ccef 023f e8cf 2abe caf7 233e be31 5bbe
00000320: 5468 173e f665 ec3e bad3 bf3e e517 6e3d
00000330: ae8b f03e 96f4 a8be e2f7 043e aab1 a4ba
00000340: a7a3 fbbd 9e2c babe 8711 d03e 69f9 c9be
00000350: 502a c7be fd03 2e3e 938d 4d3e 2f7c 24be
00000360: 983a 2ebf 4239 68be dfe7 383e e797 ba3e
00000370: 2959 813d 0ae1 3ebf 692e 3dbe 5663 27be
00000380: 3035 f7bd 62c8 623e f101 4a3d e5ed 4b3f
00000390: 7d0a 09bf e262 d83e 4d4b ecbe cefb 773d
000003a0: 521a a8bc d3a7 f43e 3652 d73e 1173 27bf
000003b0: d196 523e 87ec 62bf 118e 50be b18a cbbd
000003c0: 0530 893e e829 fb3e 238e fc3e a4db 9dbe
000003d0: 49ff 1d3e da43 9d3e 7ef7 1bbd 181a 333e
000003e0: 339e 36bd 5802 54bd 778d dd3e bd31 df3d
000003f0: d291 1d3e 5a3a 9abd d154 bebe 1836 cd3c
0.17917609 -0.17612879 -0.075744584 0.09535004 0.1879431 -0.31097436 0.32186484 -0.40720156
-0.9138852 -0.22830282 0.19884925 -0.26551998 0.025388973 -0.2629568 -0.021526378 -0.65199435
0.13782549 -0.29923898 -0.054567333 0.59636647 -0.07092811 -0.26849422 -0.0023872212 -0.19106956
0.5780254 0.37901342 -0.43246597 0.3618158 0.6222195 -0.014720889 -0.07043391 0.17561655
-0.09415969 0.32891068 0.4044627 -0.6858971 0.348021 0.56814736 0.07673706 -0.9107177
0.26634362 -0.45499116 -0.49578327 0.013868202 0.36617002 0.2623216 -0.15051743 0.07781972
-0.00019978128 0.38126892 -0.015010741 -0.30890328 0.65518254 -0.33492252 -0.37232295 0.20570526
0.72791713 0.98297995 -0.428969 -0.46614805 0.22858515 0.41032276 -0.03960822 -0.73015153
-0.19041911 -0.41974986 -0.97411954 -0.39405328 0.33717543 0.7034883 0.3591758 0.09922046
0.15477309 0.09786435 -0.28283226 0.3294576 -0.14643534 0.3401369 0.0035185828 -0.12151265
-0.3806623 -0.25716576 0.28696138 0.22830176 0.19498387 -0.07409769 0.0063778204 0.49654618
0.03278778 -0.21108106 0.53852797 -0.29262802 0.48022556 -0.32167655 -0.14938837 0.24603821
0.73605835 0.39741492 0.7292109 0.39618945 -0.008775458 0.33409563 0.047426652 0.048930485
0.020088138 0.48880127 -0.5528938 -0.015457387 -0.41510558 0.39802122 -0.31049484 -0.40567908
-0.43130574 -0.3634048 0.44789442 0.30670598 -0.4169217 0.5627349 -0.32864958 1.2428538
-0.11874276 0.20665975 0.48857766 -0.16681197 0.3218918 0.2024134 -0.0028489332 -0.5479926
0.032042794 -0.62438893 -0.520745 0.14557885 -0.08147665 -0.16031617 0.09247565 -0.32637542
0.55704194 -0.20163462 -0.053422138 -0.07044679 -0.6989616 0.080232926 -0.13023017 -0.008801724
0.42415982 0.00015916307 -0.33689094 -0.11552398 -0.4488199 0.06337567 -0.22168751 0.22458534
-0.48810685 0.4371453 -0.32017738 -0.021658909 -0.6986313 -0.19932365 0.60610026 -0.2856148
0.50230134 0.12806351 0.023174426 0.06439533 -0.053876963 -0.15490095 0.0862215 1.0803244
0.038696308 0.18055916 0.10876659 0.26685947 -0.44136444 -0.94747293 0.452606 0.21987733
0.45740432 0.3867093 0.40669614 -0.32534862 0.43874758 -0.2853732 0.2570577 0.40199882
-1.2320012 -0.2934721 -0.5074752 -0.38704273 -0.34664613 0.06088451 0.12727264 -0.12938847
-0.31507474 -0.43215552 0.027005639 0.24656652 0.5114715 -0.16680872 0.16012493 -0.21405694
0.14785892 0.4617154 0.37466222 0.058128256 0.46981567 -0.32999104 0.12985185 -0.0012565155
-0.122870736 -0.36362165 0.40638372 -0.39448097 -0.3889947 0.16993709 0.20073538 -0.16062997
-0.68058157 -0.22678092 0.18057202 0.36444017 0.06315834 -0.7456213 -0.18474735 -0.16346487
-0.120706916 0.22146752 0.049318258 0.79659873 -0.5353163 0.42262942 -0.461512 0.060542874
-0.020520363 0.4778429 0.4205491 -0.6540995 0.20565344 -0.8864216 -0.20366694 -0.09938563
0.26794448 0.4905541 0.49327192 -0.30831635 0.15429415 0.3071583 -0.038077824 0.17490423
-0.044584464 -0.051760048 0.43271992 0.10898159 0.15387657 -0.07530661 -0.37174085 0.025050208

network_body._body_endoder.seq_layers.2.bias f4 [128]
00000000: 5bef 04bd 2745 0fbd 7486 c4bc 0063 46bd
00000010: 1945 a7bc 68df 35bc 0da2 64bc 57d7 90bc
00000020: de28 f2bc 5b75 003c 28a3 3bbd 2d06 6dbc
00000030: 4363 52bd 85ed 07bd f531 0ebd c3fa 0ebd
00000040: e881 1abc 434d 31bd 985e 38bd c83e ffbc
00000050: a05a 20bd 76e6 9fbc 0623 19bc 5583 7cbc
00000060: 290a b2bc 83f0 42bd 102c a53c 0f7e 733c
00000070: d963 cfbc 0f39 39bc 9d8d f2bc 23ef 7abc
00000080: 3f5c f6bc 1844 8bbc ca1b 2abd 05a3 ffbc
00000090: 25b0 0ebd 3064 08bd d243 fd3b 5f75 c1bc
000000a0: 0218 253a 3917 54bc 7dc0 02bd 7fc7 85bc
000000b0: fe9f 0bbd b517 56bd 33ad 1ebd a7c5 47bb
000000c0: 3654 24bd b236 52bd 8950 f7bc 159e 373c
000000d0: baa6 20bc 7f49 14bc b8bd 92bc 1457 e3bc
000000e0: f54f 4cbd db7a f3bc 7b3e 4bbc 241d 1cbd
000000f0: fe3f 97bc 036a 8cbd 6df6 f0bc b780 14bd
00000100: 9d24 02bd 3101 06bd dbd5 1cbd f8ce 30bd
00000110: 3912 04bc 7f4b 2dbd 87a8 38bd 47a0 b9bc
00000120: 4d74 08bd 4630 87bc 3b1d cbbc 29a4 c4bc
00000130: 9221 07bd 8395 29bd 356e ddbc 0b63 22bd
00000140: ef9e 0ebd aae1 0fbd 30d1 00bd 43db 38bd
00000150: 9768 89bc 3bed d3bc a708 b7bc cc95 8ebc
00000160: 4fb2 f6bc 8aae 3abc a915 00bd 30ba 7abc
00000170: 902d c9bc 4147 3fbc d78f debc 22e9 0d3c
00000180: 1330 bfbc 63b9 483b 6821 e5ba 0a78 1ebd
00000190: 1003 abbc a9c6 f1bc 1835 a6bc 8a0c 42bc
000001a0: 5bda b2bc d4a3 1abd 7ca0 ecbc 42e2 24bd
000001b0: 597b 47bd 40ff 683b 011e 34bc 6863 b7bc
000001c0: bbe0 0cbd b294 3ebd 786d 11bd 0413 0dbd
000001d0: 43bc 33bd d740 f2bc 2862 b53b 23c2 94bc
000001e0: 8b78 23bd 99b6 b9bc 4ddb 30bd f1cc 82bc
000001f0: b80d 9fbc 32a1 50bd 11ee bbbc 2e63 1ebb
-0.03245483 -0.03497806 -0.023989893 -0.048434258 -0.02041869 -0.0111006275 -0.013954652 -0.017680807
-0.029560503 0.00784048 -0.045809895 -0.014466804 -0.051364195 -0.0331855 -0.03471561 -0.034907114
-0.009430386 -0.043286573 -0.045012087 -0.031157866 -0.039148927 -0.019519072 -0.009346729 -0.015412171
-0.02173336 -0.04759265 0.020162612 0.014861598 -0.025316166 -0.011305108 -0.029608542 -0.015315804
-0.030073283 -0.017000243 -0.041530408 -0.031205663 -0.034835953 -0.03329867 0.007729032 -0.023615537
0.0006297828 -0.01294499 -0.031921852 -0.016330479 -0.034088127 -0.052268703 -0.038739394 -0.00304828
-0.040119372 -0.051321693 -0.03018977 0.011207123 -0.009805376 -0.009050726 -0.01791273 -0.027751483
-0.04988094 -0.029721668 -0.012405033 -0.03811373 -0.018463131 -0.06856158 -0.02941438 -0.036255565
-0.0317732 -0.03271598 -0.038289886 -0.04316613 -0.008060985 -0.042308327 -0.045082595 -0.022659434
-0.033314038 -0.01650251 -0.024794212 -0.024004059 -0.032991 -0.04140235 -0.02703009 -0.039645236
-0.03481954 -0.03512732 -0.031449497 -0.04513098 -0.016773505 -0.025869956 -0.022342993 -0.017405413
-0.030114321 -0.011394152 -0.031270657 -0.01530318 -0.024557859 -0.011674703 -0.027168198 0.00866154
-0.023338353 0.0030628077 -0.0017481269 -0.038688697 -0.020875484 -0.029513674 -0.020288989 -0.01184381
-0.021832636 -0.037753895 -0.028885119 -0.04025484 -0.048701618 0.0035552531 -0.010993482 -0.022386268
-0.034394007 -0.046528526 -0.03550479 -0.034441963 -0.043880712 -0.029571934 0.005535383 -0.018158978
-0.03990988 -0.022670077 -0.04317789 -0.015966864 -0.019415721 -0.050934978 -0.022940667 -0.0024168002

network_body._body_endoder.seq_layers.2.weight f4 [128, 128]
00000000: d726 a6ba 72d4 36bc e319 65bd d0c3 37be
00000010: 6876 083d 8fc9 3d3e bd94 083e 7287 21be
00000020: 124f 293d b10b aabd 3a2c 1dbe 5b23 31bb
00000030: bd8e d1bd 7493 f03d 8165 973d 982d 63bc
00000040: 5c7e cd3c 874e 123d 7397 b7bd e10c e6bc
00000050: 9d63 22bd 3f68 9c3d bc85 493d f695 a0bd
00000060: 680b 15b7 9d52 9b3c 5eb7 d9bd 70ec 663c
00000070: ca9e 77bd 9a2b 1f3c ad7b 233d 5d7c 373e
00000080: e824 0e3e 5cff 40ba 223c 8b3c 15d1 533d
00000090: 91c6 b33c 66ac 2cbe 1855 d2bc db4c 503a
000000a0: aa1f b4bd 189d 8cbc 9e2d f43d cddf 05be
000000b0: 5fda a2bc 18eb 68bc 71b2 f53c a64a 34be
000000c0: 2475 a3bd 5b4a 1fbe 18c4 d43d 46a5 26bc
000000d0: cede d53c 1b52 b83d afa5 9ebd 6817 cc3d
000000e0: 8eb0 493e 4bea d33c 8c9a 4abe a3ad 163d
000000f0: c0e6 c63c 2119 d9bd 4512 a73d 78b4 dfbd
00000100: a1b3 cb3b 8fd4 94bb c3c8 b5bd d12b e6bd
00000110: b5b7 8ebd 8348 9ebd f086 9ebc 993b b7bd
00000120: cb0e 41bc f53e e2bd cc68 88bd 0050 8fbd
00000130: 52c5 c9bd 23ce 2d3d 5d57 753d 2818 a2bd
00000140: ceeb 90bd f3ed 473d 8813 3a3d 847a e7bd
00000150: 1d24 983c 4b5e 89bd 56cb 02bd abd9 19be
00000160: 27cb f3bd a175 1e3d eff6 d63d 542f 96bc
00000170: 9b42 d1bb bd9d 12be 6689 ecbd f427 edbd
00000180: 197e e8bc b361 aabc 9eb1 aebd 6aeb 423d
00000190: 4a88 0fbd 251a a7bd af42 90bd 47bb 963b
000001a0: 7694 8c3d 9eb6 b7bc 4424 3abd ba49 1dbe
000001b0: b850 3bbd c917 363d 0ea0 b33d b751 82be
000001c0: ee03 3abe ae2c f2bd 5ddf c5b9 20a8 bc3d
000001d0: be50 223d 8a58 67be 67d1 ec3d 0179 f63c
000001e0: cbde ccbd 926c 81bc ff75 033e e608 b4bd
000001f0: 0b0c 923d 044c 6dbe 9562 56be 1038 8d3d
00000200: a1f4 903d 0788 313c d549 703c 92ee e6bb
00000210: c9c3 31bd 328d 04bc ffb5 45bb 4be0 29be
00000220: d199 8bbd eeec fa3c 4f96 8f3d a6e4 97bd
00000230: 94ea 9c3c dec9 a5bd c9f2 babd ccce d03d
00000240: d881 dd3d deaf 393e 186a 293c 40ee 013d
00000250: 0fc2 6cbd 7cbc 263b 2c3d 49bd 9eb5 21bd
00000260: b9e2 933d e027 253d b6ab ee3c 625b 04be
00000270: fa8e 60bd ba48 093d f65f ac3d 11d4 203d
00000280: 198a f6bd 4210 003d c9f4 1a3e bcc1 ccbc
00000290: 03c9 833d 3997 82be 2018 d93d fa1a 093d
000002a0: cc29 98bd 1deb ab3c a4e0 073e 470a 743d
000002b0: 6361 863d 7622 0cbc c3f8 1b3d f955 11bc
000002c0: 955a 443d a37b cbbd f9b0 5ebd 6d4d bf3d
000002d0: e837 9c3d 02ed 34bb 1c9f a23c 620f 2f3e
000002e0: 1db4 b83d 6f76 a53d 57a1 89bd 9481 f1bc
000002f0: 0db5 bd3d 77fb c2bd d476 20be 35cd 5dbd
00000300: eaa2 1fbe 701a 42bd 02bf 0abe b328 eebd
00000310: 78a0 a6bc 19e0 913d 48d5 dfbd c46c 8f3d
00000320: f988 043e 76c2 aa3d b807 1c3e 8f7a 55bd
00000330: d45b 22bd 63c5 a1bb 1287 7cbd 1025 26bd
00000340: 9445 0c3e 247c 473d e0d5 a2bc 3a60 6cbe
00000350: d996 b93d 6e9f 1c3e e3da a6bd f85f dabc
00000360: cc17 3a3e 1840 e7bd 858e 05be 4371 11bd
00000370: 73fb d23d b7a8 953d 90a5 dbbd b54a b5bb
00000380: f123 bfbd b105 583c 5810 2bbe 921f 643b
00000390: 4a9f 66bd 232c 523c 6aaa ecbd 14e8 353b
000003a0: b3d5 313e 7775 ac3c 88ff 36be 76c9 483d
000003b0: 3383 3b3d eb29 f3bd bc0f b03d 35dd 93bc
000003c0: fa83 02bd 4c14 d23c 02be a9bd 0973 263d
000003d0: 1cc5 c13d b4cd 893d d4ee 2a3c 576f 053e
000003e0: 354e f2bd 27a6 a23d 957e 26be 300a c33d
000003f0: 95c8 8a3c 9cb7 a4bd cb63 1d3d 11e9 cf3d
-0.001267637 -0.011159049 -0.05593289 -0.1794579 0.033316046 0.1853392 0.13337989 -0.15774325
0.041335173 -0.08303011 -0.15348902 -0.002702913 -0.10232303 0.117468745 0.07392407 -0.013865851
0.025084667 0.03571942 -0.089644335 -0.028082313 -0.03964578 0.07637071 0.049199805 -0.07841103
-8.883748e-06 0.018960292 -0.10630678 0.014094457 -0.060454167 0.009714985 0.03991287 0.17918535
0.13881266 -0.000736227 0.016996447 0.051713068 0.02194527 -0.1686264 -0.025675341 0.00079460227
-0.08795102 -0.017164752 0.11922763 -0.13073654 -0.019879518 -0.014216207 0.029992314 -0.17606601
-0.07981327 -0.15555708 0.103889644 -0.01017124 0.026107218 0.090000354 -0.077464454 0.09965402
0.19696257 0.025868556 -0.19785517 0.036786687 0.024279952 -0.10600496 0.081577815 -0.109230936
0.006216482 -0.0045419405 -0.08876183 -0.11238826 -0.06968633 -0.07728674 -0.019351453 -0.08946914
-0.011783312 -0.11047164 -0.066606134 -0.06997681 -0.09852089 0.042432915 0.05989777 -0.07914764
-0.07076226 0.04881091 0.045428783 -0.11302665 0.018571908 -0.06707438 -0.031932198 -0.1502444
-0.119039826 0.0386864 0.104963176 -0.018333115 -0.006386114 -0.14317985 -0.11549644 -0.11579886
-0.02838044 -0.02079854 -0.085299715 0.04758779 -0.035042085 -0.081592835 -0.07043969 0.004599962
0.06864254 -0.022425946 -0.04544474 -0.15360156 -0.045731276 0.044456277 0.087707624 -0.25452968
-0.18165562 -0.11824928 -0.00037741187 0.09211755 0.039627783 -0.22592369 0.11563378 0.030086996
-0.10003432 -0.01579884 0.1283798 -0.0879076 0.07131203 -0.23173529 -0.20936044 0.06895459
0.07077909 0.010835654 0.01466604 -0.0070474828 -0.043399606 -0.008090304 -0.0030168293 -0.16589467
-0.068164475 0.030630555 0.07011091 -0.07416658 0.019154824 -0.08095144 -0.09128339 0.101956934
0.10815781 0.18133494 0.010340236 0.031721354 -0.057802256 0.0025441935 -0.049130604 -0.039479844
0.07220978 0.04032123 0.029134613 -0.12925485 -0.054823853 0.033516623 0.084167406 0.039264742
-0.12038059 0.031265505 0.1513244 -0.024994723 0.06434824 -0.25506 0.106003046 0.033472992
-0.07429847 0.020986134 0.13269287 0.059580114 0.06561544 -0.008553138 0.038079035 -0.008870595
0.04793795 -0.09935691 -0.054367993 0.0934094 0.07627851 -0.0027607088 0.01985126 0.17095712
0.09018729 0.0807923 -0.06720226 -0.029480733 0.09263048 -0.09520619 -0.1567033 -0.05415078
-0.1558949 -0.047388494 -0.13549426 -0.116288565 -0.02034019 0.07122821 -0.10929352 0.07003167
0.12942876 0.08337872 0.1523732 -0.052118834 -0.039638355 -0.0049368604 -0.06165225 -0.04056269
0.13698417 0.048702374 -0.019877374 -0.23083583 0.09061975 0.15295193 -0.08147218 -0.02665709
0.1817314 -0.11291522 -0.13042648 -0.035508405 0.103018664 0.073075704 -0.10724938 -0.0055325874
-0.09333027 0.013184951 -0.16705453 0.0034808856 -0.056304254 0.012827906 -0.115559414 0.0027756738
0.17366676 0.021052105 -0.17870915 0.049020253 0.04577942 -0.118732296 0.08596751 -0.018049816
-0.031864144 0.025644444 -0.08288194 0.04063705 0.09461424 0.06728688 0.010432918 0.13030754
-0.11831323 0.07941847 -0.16259225 0.095234275 0.016941348 -0.08042833 0.038425248 0.10151876
