Assets/models/Chase-1000036.onnx (onnx, 72639 bytes, 7 tensors)

action_model._continuous_distribution.log_sigma f4 [1, 2]
00000000: 0709 3abf dcc2 85bf
-0.72670025 -1.0450091

action_model._continuous_distribution.mu.bias f4 [2]
00000000: 9230 79bd 796d c3bd
-0.060837336 -0.095423646

action_model._continuous_distribution.mu.weight f4 [2, 128]
00000000: 1f3e ed3c 1719 14bd f098 39bd 8374 65ba
00000010: 0cd2 31bd ae1f 8dbc 9ad7 ae3d 26d0 b1bc
00000020: 28c2 ccbc f495 c53d cc04 00bd dced ddbc
00000030: 557b 2a3c 6a75 9e3c b861 55bd 4ab8 45bd
00000040: 65dd e3ba d787 a0bd fede 923c f695 2a3d
00000050: 712e 31bd f6e8 eabb dad5 863c ffce e5bd
00000060: 0dae 7c3d f219 4f3d 40ff b5bd 017d 913c
00000070: c183 9c3d c914 9e3d b72f ccbb 6d3e 17bd
00000080: 78ec 05bd abc4 bd3d 4d00 313d 2d3d b6bc
00000090: c3dd a03c 9828 a63c 2c72 3bbc 8de0 b33d
000000a0: b452 81bd 6589 90bd 74ae 503d 87bd 49bd
000000b0: 3c16 de3b eb8e ccbc ff02 cdbc 3b71 893d
000000c0: 1c49 90bd 61ce 963d d28a a8bc 53d1 093d
000000d0: ea76 05bd d88d aabc 83ac 7f3c 9aae 593c
000000e0: c7cc 8ebd 0a37 933d 8321 9a3a fc08 82bd
000000f0: c07e 10be 819d 16bd bd54 56bd 265c 853d
00000100: 0a60 963c 301c 043d a767 4d3d bc11 f43a
00000110: 61f3 8abc e74b f63d 08f0 f03d 60c4 5fbc
00000120: 29d8 a739 9451 f9bd 6757 e4bb 7871 72bc
00000130: 2f4c 08bd d705 1dbd 4642 78bc 277f 0e3d
00000140: 2708 cc3d 38b6 5f3c 3fda 043b 52ab 62bc
00000150: 2968 10bd 61bf 8ebb 527b acbc 6b15 f63a
00000160: 1fda 293d b02a 7d3c 7cdf 0e3c fc99 04bb
00000170: f2b2 5fbd 19fe 3fbd a489 303c 0988 193b
00000180: dba4 74bc b3a8 23bc b555 8bbd 49ca 513d
00000190: 7a86 993c cdb2 753d ec54 2b3c 6581 16bd
000001a0: 21ba 6bbb d593 783d dce1 08bd aa60 0c3e
000001b0: 1d7b 2b3c 9869 e8bc 01a8 d3bb 9177 f3bc
000001c0: 0c99 8cbc cb7c 333b 19f2 b1bc fdaf b9bc
000001d0: 7435 30bc fe1d 553b 8867 753d c6b1 edbc
000001e0: 27b8 a7bd 097a 58bd 6c78 2d3d 2f90 fc39
000001f0: de79 52bd 54d5 9b3c 385b b0bc 605d 1c3b
00000200: e6aa 12be 0023 ae3d 3f1d 38bd b9c7 993d
00000210: 97d3 873c 6af9 4d3d 80bc 943b 70df 0f3d
00000220: 8e46 2c3d d86a bdbb be91 d13d 295e 0c3d
00000230: cbdf b8ba ad35 dd3b ebc3 8f3d 38a0 65bd
00000240: d885 003d 0645 8b3d 5fb8 763b 6867 ed3b
00000250: 9295 903d df01 d63c 0cfb 3ebd 6009 9abc
00000260: 3173 d03d d112 213c 3b39 1d3d 3b54 c13c
00000270: 06b4 e0bc 71ad 40bd fba9 8b3d e770 cd3a
00000280: 9412 3e3d 0ddc c63c 77dc cfbc 6f81 ea3c
00000290: c928 2d3e 9d69 5bbd 4845 f43c a643 9ebd
000002a0: 3b4e d0bc 2a15 13bd 0b05 883d ab8a d13c
000002b0: e293 543d 6a51 34bd 89b8 4f3d c3c9 963d
000002c0: 8acd bc3d 2686 f93b 82ba 52bc ad00 2f3c
000002d0: 1ed9 5c3d 6980 133d 040d 3a3d 9c1d 6a3d
000002e0: c3f9 973d aa85 e7bc 396e af3d bc8e 42bd
000002f0: 18be 783d 5932 bf3d 3497 40bd ddb2 e839
00000300: 8df9 32bd 6e3e 103b 19ab d0bb bd83 b33d
00000310: 8f61 b33d 1ede b3bc d13e 843a 0e43 933d
00000320: 1365 5ab9 e0f4 c03c 7ba6 933d 459d 473d
00000330: 12cc 1c3d c56d e1bc a9dd 513d 2034 9c3d
00000340: 5b69 f83c bd2c ac3b b6c6 333d 43c4 b53d
00000350: 1ff8 8b3d 06ab 1a3d 6583 c23c 189e 1e3d
00000360: c158 143c 5409 c83c 627b 0c3d 3324 113d
00000370: 422c f93b 4fc7 abbd cba0 76bd d5df 813d
00000380: 694f 2b3d 6e35 d83c f59a b2b9 ecba e53c
00000390: 7fe1 ee3b c865 1c3d 61a4 273d e0c5 8b3d
000003a0: 462d 6cbc e149 f93c 6dca f73c a3d2 613b
000003b0: e444 cc3d 853d 0f3c bf12 893d 2311 ae3c
000003c0: 7acd 10bc a6dd 8c3d 9768 803d 8830 80bd
000003d0: d8f4 ac3d 3641 b3bd 02f2 59bb 3dc4 02bc
000003e0: 75d7 0ebc 5d57 313d 3ddf f13d 7687 2dbc
000003f0: c71b 22bd 3e46 86bc 8ca7 283d 630e cc3c
0.028960286 -0.03615674 -0.04531187 -0.00087530183 -0.043413207 -0.01722702 0.085372165 -0.021705698
-0.024994925 0.09647742 -0.031254575 -0.02709096 0.010405381 0.019343097 -0.052095145 -0.048271455
-0.0017384706 -0.078384094 0.017928597 0.04164692 -0.04325718 -0.0071688844 0.016459394 -0.11221122
0.061689425 0.050561853 -0.08886576 0.017759802 0.076423176 0.07718808 -0.006231274 -0.03692477
-0.032696217 0.09266027 0.043213177 -0.022245968 0.019636994 0.020283028 -0.011440795 0.08783064
-0.063146025 -0.07057456 0.05094762 -0.049253013 0.006777553 -0.024970492 -0.025025843 0.0671105
-0.070451945 0.073635824 -0.020574007 0.033646893 -0.03258411 -0.02081959 0.015605095 0.013286257
-0.06972652 0.07188232 0.0011759255 -0.0634937 -0.14110851 -0.0367713 -0.052326906 0.065117165
0.018356342 0.032253444 0.05014768 0.0018621008 -0.016961755 0.12026196 0.11764532 -0.013657659
0.00032013774 -0.12173763 -0.006968427 -0.014797561 -0.03327578 -0.038335647 -0.01515252 0.03478923
0.099624924 0.013654284 0.0020271686 -0.013834791 -0.035255585 -0.0043563102 -0.021054897 0.0018774694
0.041467782 0.015452072 0.008720275 -0.0020233383 -0.054614015 -0.046873186 0.010775004 0.002342703
-0.014931883 -0.0099889515 -0.06803457 0.051218305 0.018740881 0.05998497 0.010457259 -0.036744494
-0.0035969096 0.06068786 -0.03341852 0.1370875 0.010466364 -0.028370664 -0.0064592366 -0.0297201
-0.017162822 0.0027387615 -0.021721886 -0.022666926 -0.010754932 0.0032519097 0.05991319 -0.029015433
-0.08189421 -0.052850757 0.04235117 0.0004817261 -0.051385753 0.019022621 -0.021527871 0.0023859367
-0.14323005 0.085027695 -0.044949766 0.07508797 0.016580386 0.050286688 0.0045390725 0.035125196
0.042059474 -0.005780559 0.10232876 0.034269486 -0.0014104781 0.0067507834 0.0701979 -0.056061
0.031377643 0.068002746 0.0037646515 0.007244993 0.07059778 0.02612394 -0.046626136 -0.018803298
0.10178221 0.009831146 0.038384657 0.023599735 -0.027429592 -0.047040407 0.068195306 0.0015673906
0.046404436 0.02427485 -0.02537368 0.028626172 0.1691009 -0.053567518 0.029818192 -0.07727747
-0.025427928 -0.035908855 0.06641587 0.025578817 0.051898845 -0.044022955 0.050713096 0.07362702
0.09218891 0.0076148687 -0.01286185 0.010681313 0.053917997 0.036011133 0.04542257 0.057157144
0.07420685 -0.028261978 0.08565945 -0.047499403 0.060728163 0.09335775 -0.0470192 0.00044383752
-0.04369502 0.0022009867 -0.0063680527 0.087653615 0.08758842 -0.0219565 0.0010089522 0.07190524
-0.00020827753 0.023554265 0.07209488 0.04873397 0.038280554 -0.027518163 0.051236782 0.076271296
0.030323675 0.0052543567 0.043890677 0.088753246 0.06834435 0.037760757 0.023744294 0.03872499
0.009054364 0.02441851 0.034297355 0.035434913 0.007604153 -0.083876245 -0.060211938 0.06341521
0.04182378 0.026392665 -0.00034066258 0.028043233 0.007290065 0.038183004 0.04092825 0.06824851
-0.014415091 0.030430736 0.030247891 0.0034457825 0.09974077 0.008742695 0.06693029 0.021248406
-0.008838052 0.068782136 0.06269949 -0.062592566 0.08445138 -0.087526724 -0.003325582 -0.007981357
-0.008718361 0.043296207 0.118101574 -0.010591378 -0.03957727 -0.016390916 0.04117541 0.024909204

network_body._body_endoder.seq_layers.0.bias f4 [128]
00000000: 1c0a dabb 8c3a 0abd b7db a6bd b8d2 263c
00000010: 2a3a 14be c742 33bd 840a 3bbe cb4a b3bd
00000020: 2253 b23c 2e57 433d d7b6 e9bd f523 59be
00000030: f7c7 3dbe ca66 1a3d 7099 9b3d 70e3 9abd
00000040: d331 51be 2f6b 49be f8d5 68be d119 63bd
00000050: 2062 05be 8191 103e 37ea 1b3e 48c8 1bbe
00000060: e170 08be 6d1b 3fbe be0a c4bb f137 d8bd
00000070: d969 443d 60ac c03c ce57 49bd d3d8 abbd
00000080: c06d 703c 9976 f0bd a67b aabd a599 97bd
00000090: d1f3 49be 10f4 533d 8562 d0bc f5ef 78bc
000000a0: dd72 dfbd 06f0 cabd ebb7 01bb 4ddf 3dbe
000000b0: 8b46 a43d 442d e2bd 2a54 97bd 9d37 053d
000000c0: 16b8 b8bc 3f75 79bd c71a 4ebc d34c 19bd
000000d0: 9069 2cbe ef30 acbd e733 58bd 29da ffbc
000000e0: d09f a0bc d252 46be f947 edbb 853f f7bd
000000f0: 5c70 47be b816 c3bd e944 f0bc ff2f 85bd
00000100: d0e0 6c3d b677 97bc 7d29 68be 3c8a 01be
00000110: dac6 a6bc fcac 73be 8eda e1bd 1874 733d
00000120: c570 3ebd 7629 cebb 7284 39be 1812 1fbe
00000130: 21ce 04be b7c7 1dbe d65f 89bc 1718 85ba
00000140: 8f47 5bbe e1af 553c 6c28 1c3c df49 19be
00000150: cc89 9ebd bd36 7fbc 052e dabd ced4 913c
00000160: 4fa4 953d c46f 9dbc bf65 b8bc d83e 61bd
00000170: 7c60 5838 0a46 15be 55bc fd3c db6d 86bc
00000180: fec6 233d b02f 02be 12c8 86bd ec9a b1bd
00000190: ea8e 9ebc 1ab9 a1bd bbaf 44bd 05ca 9bbd
000001a0: 3f8d debd 04cb 8a3d aa3d 9fbd 2139 9a3c
000001b0: 76e9 56bd e64f b0bd 8060 d1bd 9ef5 dcbd
000001c0: 34e4 7abd 0879 44be facb 4e3d 03b5 8abe
000001d0: 7061 09be 8019 febd b4c4 17be 120d 21bd
000001e0: 217b d6bd 7525 993c 7610 87bd 8ce2 c7bc
000001f0: 3a06 dfbd b283 7cbe b01d adbd dd9a 7cbd
-0.006654037 -0.03374724 -0.08147376 0.010182075 -0.14475313 -0.043764856 -0.1826573 -0.087545
0.021768156 0.047690563 -0.11411827 -0.21205123 -0.18533312 0.037695684 0.07597625 -0.075629115
-0.20429163 -0.19669794 -0.22737873 -0.055444542 -0.13025713 0.14118005 0.15226065 -0.1521312
-0.1332431 -0.18662806 -0.005982726 -0.10557545 0.047952507 0.023519695 -0.049156003 -0.08390965
0.014674604 -0.11741371 -0.08324365 -0.07402352 -0.19721915 0.051746428 -0.025437603 -0.015193929
-0.1091058 -0.09909062 -0.0019793462 -0.18542214 0.080212675 -0.1104379 -0.073891 0.03252374
-0.022548717 -0.06090283 -0.012579626 -0.03742678 -0.16837144 -0.08407771 -0.052783873 -0.031231957
-0.019607455 -0.19367531 -0.007241246 -0.12072662 -0.19476455 -0.09525818 -0.029329734 -0.06503295
0.057831585 -0.0184897 -0.22672077 -0.12650388 -0.020358492 -0.23796457 -0.11028014 0.059436888
-0.046494264 -0.0062915636 -0.1811693 -0.15534246 -0.12969257 -0.15408216 -0.016769331 -0.0010154274
-0.21414016 0.013042421 0.009531122 -0.14969586 -0.077411264 -0.0155770155 -0.10653309 0.017801668
0.0730673 -0.019218333 -0.022509454 -0.054991573 5.158827e-05 -0.14577499 0.030973593 -0.016409805
0.039984696 -0.12713504 -0.06581129 -0.08672127 -0.019355256 -0.078966334 -0.048019152 -0.076068915
-0.10866784 0.067770034 -0.07775433 0.01882607 -0.05246874 -0.086089894 -0.10223484 -0.10789035
-0.061252788 -0.19186795 0.050487496 -0.27091226 -0.13416076 -0.124072075 -0.1482113 -0.039319105
-0.10472704 0.018694619 -0.065949365 -0.024400018 -0.108898595 -0.24659613 -0.08452928 -0.061671127

network_body._body_endoder.seq_layers.0.weight f4 [128, 6]
00000000: bd6c 973c 290a 00be 76b4 bebd 7f36 97bd
00000010: 78af 813e cb21 073e 0ab6 973b 0678 e63e
00000020: 794c aa3e 351e 5fbe 5446 3b3f ae40 14bf
00000030: fbc8 09be c888 d0bb bfb5 2abf e3f5 38be
00000040: f268 f63d 57fc 6c3d bcfd ab3f f269 573f
00000050: 3b70 97be 27e8 72be 49cc 893e 6db8 f43e
00000060: 8171 493f f750 bebe 6b66 a83e 7109 1dbf
00000070: 1d10 3f3f a6e5 cd3d fd7f 053d 0d67 0e3e
00000080: 76b0 07bf 385f bcbe bd82 c13d d633 943e
00000090: 3a12 fabc e3eb 43be 2e6d 3cbe 6385 c23e
000000a0: 4d33 0cbe e2d0 1cbf 88d8 b4be 192d 45be
000000b0: f763 993d be15 433f b700 05bf c476 9e3e
000000c0: 6eb1 76bf 8515 f73e 4f72 ca3e bac2 813e
000000d0: a5b5 4fbe 4988 8dbe 773b e9be d705 2fbe
000000e0: 9eae a9be 9834 a5be fb35 19bf 2faf cd3d
000000f0: 2403 ed3c d3ce 19be 4100 76bd a7ee 293f
00000100: 2d18 39be 4e13 d53e 4ec8 44bd d217 c5bd
00000110: f24e 6abe c983 ec3e cb9d 0e3e 4c87 62be
00000120: 7ea2 143b 24fc 4dbe 64b8 b13e cb0c c8ba
00000130: d9c4 0fbf c69d 34bf d2f4 053e e57a 1cbc
00000140: ee85 b8be 3757 1fbe c9e3 62be bbec 53bf
00000150: 6ae3 3a3f 8149 e73d 41e7 143d 2720 c1be
00000160: 16f8 fd3e 7524 dfbe c343 f93d 2617 d5be
00000170: 6191 163f 3a7c 6e3e 7d65 5abd c7f0 d7be
00000180: aa95 343e 92a3 3e3e ff09 c6be 1732 23bf
00000190: f035 3f3f 497b 1e3f 5f12 cb3e 086b 0e3f
000001a0: d34a 0e3f a003 233c 26e8 0d3c 79c7 9fbd
000001b0: da40 e6be c897 f5be 833c d2be bd28 a43d
000001c0: 75cd fc3d 6f6e 943b 7e7f b43e eac3 a33c
000001d0: ca39 4dbf f3f9 553f b6e0 0ebd 884c dfbe
000001e0: 185e 78ba 91e8 30bf 8ac1 ffbd ad0f c9be
000001f0: a42c a6bd eb2f a7be c8a7 013f 04ed 3dbf
00000200: 728a cdbc 14ae f4be 845c e83e b44e 0b3e
00000210: 2cd4 fe3d 2824 6b3f 00de e13c 7a09 9c3d
00000220: 8bd7 92bf 1a77 cebe 64fa 50be 41d6 d2be
00000230: ab8e 9a3d 0cfa 3b3c c178 713d d8b7 023e
00000240: 4636 093d 42fe 923d 2aff 20bf a42e 05bf
00000250: 4133 90be e1e6 2b3e 0343 513f d4ef 2bbe
00000260: 2558 c8be 9987 38bf e256 71be 299d a8be
00000270: 5313 a0bf 7d25 893d 017e 05bd bbb0 f9be
00000280: 4f65 633f 0e83 a43c c334 e4be 417a 823d
00000290: 6f29 29be d2f7 dbbd e6a9 2ebd 0b0e 233e
000002a0: fc9e 53bf 5ceb 053e 34cc f7be ad6d ecbe
000002b0: a660 5d3f 3e78 053f a68a c9be 4640 893e
000002c0: cd56 eabd 833a 3bbe 5257 3f3f 306d 4dbe
000002d0: d068 f8be 617a 83bd 45cb 533d 746c dfbd
000002e0: 3b82 abbe d050 c3bd 316c 4c3f fd62 a1be
000002f0: d77e ac3e 649d 73bd 73a7 48be 4af0 2bbe
00000300: 7742 1dbf 3b8e 2e3f 6040 bebe 3693 413f
00000310: fc05 bebe efaf 963b 1c98 483f 101e c33e
00000320: df4e e1bc eb19 8c3e b219 1f3d 2f5b f53d
00000330: 4fed d53d 1f59 963e 1f72 32bf 2d23 1f3f
00000340: 12de 18bf 0d8d c7be 1e56 cb3e 57d3 a4be
00000350: 86b5 813e 1f24 693f e311 38be 81a4 f53d
00000360: bb54 113e f75c 07bf 52fb c13d 68ad adbc
00000370: a7a6 003d 59d5 5b3e a9da 24bf 3178 573f
00000380: 1194 29be fa61 d53e db1c a8bf 8555 853e
00000390: 91e7 123e b265 17bf 688a edbe a3f0 3abd
000003a0: 05f5 0a3f 63e3 4b3e 9852 6bbd 90b6 6c3e
000003b0: 2613 41be f6db 39bf 13e3 b03e 8c69 17bf
000003c0: 4b62 123f 58be 4fbe b4d7 ec3e e029 003f
000003d0: 26da 2e3e 53f6 3dbf 7f7a 823e 5650 413e
000003e0: 80e5 543e 293c 1cbf 3a8d 9b3d f6b4 46bd
000003f0: 405c 893e 7121 ffbd 7f7b 58bf ef2a 1f3f
0.018484468 -0.12503876 -0.09311764 -0.07383441 0.25329185 0.13196485 0.004629855 0.45013446
0.3326147 -0.21788867 0.7315419 -0.57911193 -0.13455574 -0.006363962 -0.6668357 -0.18062548
0.120317355 0.057857838 1.3436809 0.84146035 -0.29577813 -0.23721372 0.2691367 0.47796956
0.7868882 -0.37171146 0.3289064 -0.6134253 0.7463396 0.100535676 0.032592762 0.13906498
-0.53003633 -0.36791396 0.094487645 0.28945798 -0.03052627 -0.19132952 -0.18401024 0.3799239
-0.13691445 -0.6125623 -0.3532145 -0.19255485 0.0748977 0.7620505 -0.51954216 0.30949986
-0.96364486 0.48258606 0.39540336 0.25343877 -0.20284136 -0.2764304 -0.4555318 -0.17092071
-0.33141035 -0.32266688 -0.5984799 0.10043179 0.028932162 -0.15020303 -0.060058836 0.6637978
-0.18075629 0.4161629 -0.048042588 -0.09623684 -0.22881678 0.46194294 0.1392738 -0.22121924
0.002267986 -0.20115715 0.3471099 -0.0015262602 -0.5615974 -0.70553243 0.13081673 -0.009550785
-0.3603968 -0.15560614 -0.22157206 -0.827831 0.73003256 0.11293317 0.036353353 -0.37719843
0.49603337 -0.43582502 0.12171128 -0.41619223 0.5881558 0.23289576 -0.053319443 -0.42175886
0.17635217 0.18617085 -0.386795 -0.63748306 0.7469168 0.6190687 0.39662454 0.55632067
0.5558292 0.009949595 0.0086613055 -0.07801718 -0.44971353 -0.47967362 -0.41061792 0.08015583
0.12343875 0.0045297663 0.3525352 0.01999088 -0.80166304 0.8358452 -0.03488227 -0.43613076
-0.000947447 -0.6910487 -0.124880865 -0.39269772 -0.08113983 -0.32653746 0.5064664 -0.7418978
-0.02509043 -0.4778906 0.45383084 0.13604242 0.12442812 0.91852045 0.027571678 0.07618995
-1.1472028 -0.40325242 -0.20408016 -0.41179088 0.07546743 0.01147319 0.05895305 0.12765443
0.033499025 0.07177402 -0.6288935 -0.5202429 -0.28164104 0.16787292 0.81742877 -0.16790706
-0.3912975 -0.72081906 -0.235683 -0.32932404 -1.2505897 0.066966034 -0.03259087 -0.48767647
0.8882646 0.020082023 -0.44571504 0.06370974 -0.16519712 -0.10740627 -0.042642497 0.15923326
-0.82664466 0.13078064 -0.48397982 -0.46177426 0.864756 0.521366 -0.39363593 0.2680685
-0.11442337 -0.18284039 0.74742615 -0.20061183 -0.48517466 -0.06419826 0.051707525 -0.10909358
-0.33497795 -0.09536898 0.79852587 -0.31520835 0.3369052 -0.05947627 -0.19595127 -0.16790882
-0.6142954 0.68185776 -0.3715849 0.7561525 -0.3711394 0.0045986096 0.783571 0.38108873
-0.027503429 0.27363524 0.038842864 0.119802825 0.10445654 0.2936487 -0.69705385 0.6216305
-0.5971385 -0.389748 0.3971414 -0.3219249 0.25333804 0.9107074 -0.17975573 0.11994267
0.14192478 -0.5287623 0.09471764 -0.02120085 0.031408932 0.21468104 -0.6439615 0.8416777
-0.16560389 0.41676313 -1.3133806 0.2604181 0.14346148 -0.5913955 -0.46394658 -0.045639645
0.5428012 0.1991096 -0.057451814 0.23116517 -0.18854961 -0.7260126 0.34548244 -0.59145427
0.57181233 -0.20287454 0.46258318 0.50063896 0.17075405 -0.74203986 0.25484082 0.18878302
0.20790672 -0.610293 0.07595296 -0.04851242 0.26828194 -0.1245755 -0.8456344 0.62174886

network_body._body_endoder.seq_layers.2.bias f4 [128]
00000000: 56d7 923d 078b 93bc 1718 44be 2cfd a7bd
00000010: 0a6e 01bd 4a9d b5bc 4c8c 313c 5e0c 19be
00000020: 427d bdbd c618 69bc d970 82bc 77ef adbd
00000030: 9737 ebbd 4eb2 9bbd 2ded 71bd 9086 48be
00000040: 11a6 49be 2cf5 cbbd 1b00 85bc 5150 cdbd
00000050: 95de 5dbd 5f53 07be 8233 36be c9e3 2a3c
00000060: 5a2e 53bc 1aaa abbc 6b12 edbc 5beb 24bd
00000070: e4c4 40be c44f bcbc 7aa1 41bd 7f8f 20be
00000080: 7d39 b8bd e8a2 0cbd 18a6 fe3b 61be 02be
00000090: 2e24 3d3d fdb3 48be 3f1f 91bd 11ad 6d3d
000000a0: abf8 1dbe c406 dcbd c0c8 4abb 276d 9dbd
000000b0: 8e0e c4bd eea2 17be 7424 05be 13dc 623d
000000c0: 2e18 dcbd 6d3a a4bd f6a9 c6bd ba3b 91bd
000000d0: b40c b7bc ae96 2bbe 94fb a3bd 3ca3 35bc
000000e0: f6ea 4aba 55a2 433d 5fc0 8c3b 54a6 0fbe
000000f0: bfc0 4b3b 3381 abbd c059 47be 1441 3fbe
00000100: 59d2 b0bc 4a0d 95bd ffd0 1ebb 5acb b8bd
00000110: 6381 293d 7ddb 0abc fe3b 89bc 8914 c3bc
00000120: 471c 17be 7358 903c 5a41 f7bd 6902 2abe
00000130: 4b57 91bd 7ba3 1fbe db0f 9bbd 0c96 48bd
00000140: 2a42 813c b13e a2bd fc7c 0bbe ac12 803b
00000150: 991e 2bbd a0ac c3bd 73a3 cbbd 9120 0bbe
00000160: 4eb9 b2bd 3c7d 50bd e9d2 17be bfd4 9fbd
00000170: e4da 87bc 3aaa a33d 2c83 60be 3815 83bd
00000180: 9ba5 f0bd e5a9 8ebd 4f3e 92bc 0630 cbbc
00000190: 6695 55bd e052 d2bd be50 c9bd b073 b4bc
000001a0: 3fe3 9ebd cdde d1bd c81a 69bd c99f eb3c
000001b0: 292b 713c 4c70 22be 19cb 18bd 5387 bbbd
000001c0: 581e 56be 1585 aaba 9304 323b cd10 43be
000001d0: d43e bebc addf 9b3b f2f0 193b 34d0 0bbe
000001e0: 988d 74bb 6bdb d1bc 4268 cc3d fc8e 89bd
000001f0: 685a 3bbc 57c4 82bc 9164 00be 4371 9abd
0.07169978 -0.01801063 -0.19149815 -0.082025856 -0.031599082 -0.022169728 0.010836672 -0.14946124
-0.09252407 -0.014227098 -0.01592295 -0.0849294 -0.11485212 -0.07602368 -0.05906408 -0.19582582
-0.19692256 -0.09958872 -0.016235402 -0.10025085 -0.05416735 -0.13215397 -0.17793086 0.010430285
-0.012889469 -0.020955134 -0.028939446 -0.040263515 -0.18825108 -0.022987254 -0.047273137 -0.1567974
-0.0899534 -0.034335047 0.0077712648 -0.12767936 0.04617708 -0.1959991 -0.07086038 0.058026377
-0.1542689 -0.10743478 -0.003094241 -0.07686835 -0.095730886 -0.14808246 -0.13002187 0.05538566
-0.107467994 -0.08018956 -0.09700386 -0.0709147 -0.022344925 -0.16756698 -0.08006969 -0.011086281
-0.00077407004 0.047762234 0.0042953934 -0.14028293 0.0031090227 -0.08374252 -0.1946783 -0.18677169
-0.021584677 -0.07277925 -0.0024233458 -0.09023161 0.04138316 -0.008475182 -0.01675224 -0.023813503
-0.1475688 0.0176203 -0.12073012 -0.16602482 -0.07096728 -0.15589707 -0.075713836 -0.04897122
0.01577862 -0.07922114 -0.13621897 0.003908476 -0.041777227 -0.0955441 -0.09943285 -0.13586642
-0.0872675 -0.050900683 -0.1482655 -0.0780425 -0.016583867 0.079914525 -0.21925038 -0.064005315
-0.11750337 -0.069659986 -0.017851977 -0.024803173 -0.05214443 -0.102697134 -0.098298535 -0.02202782
-0.077581875 -0.10247574 -0.056910306 0.028762715 0.014719763 -0.1586315 -0.037303064 -0.091566704
-0.20910013 -0.0013009632 0.002716337 -0.19049378 -0.023223318 0.004756889 0.0023489562 -0.13653642
-0.0037315842 -0.025617322 0.09980823 -0.06716725 -0.011435129 -0.015962763 -0.12538363 -0.07541134

network_body._body_endoder.seq_layers.2.weight f4 [128, 128]
00000000: 5aa3 3cbd 5cc8 6f3e 7573 de3d b0f8 5fbe
00000010: a4fe 03bd dd57 e73c 07dd e1bc 507c d33c
00000020: fd29 9fbe b334 6e3d 0928 2a3e 0091 9ebd
00000030: 694c c13d c15c 503d 0201 2e3e cd44 703e
00000040: e6cf 49be 156d 04bd cf75 49bd 60b7 533e
00000050: 2d2b fb3d 1505 593e bfa0 4fbe fad8 b5bd
00000060: c229 eebd 7602 9abc b072 b6be cf81 38be
00000070: 4491 0dbf 8538 703e 17ca 9bbe b34b 1c3e
00000080: 3c6e 03be 3c7f a63c a15a 4cbd 900c 213e
00000090: d991 e23d e25d 30be df2f b03c 4ee9 fd3d
000000a0: 87f6 9f3b c745 113d 5e57 82bd 13f1 75bd
000000b0: c4bc 3a3d 50bc 3c3e ae86 0fbe 3e90 e13d
000000c0: bda0 a33d e16e 20bd beb7 83bc e28a 783e
000000d0: 9ef7 c13d 5cdb 073e b332 663e 3edb e83d
000000e0: b0c3 6ebe ae7e 53bd 87c7 9fbc 04c7 2a3d
000000f0: 163f 29be 531b 09bd 2f29 fabd b554 983d
00000100: 6880 ec3d 3157 f6bd 3781 bfbd b9e1 843e
00000110: d14b 76be 2486 16be fd47 3b3e 0429 463e
00000120: 54d7 98bd 10bc 233e 53c4 b1bd ab5c 3ebc
00000130: 8a73 75be 8b3a a43c 5d47 35be 8b5a 61bd
00000140: aa46 933c 396c b7be 0875 4a3e 9f30 70be
00000150: 3458 3a3c d52c 183e 097a 493d 844f 523d
00000160: 4863 1dbe 8cd8 ae3d dbe0 00be eba7 a6bd
00000170: 1e36 2ebd c9d9 f73d a2f9 36be d398 0cbe
00000180: d833 93be 5112 b73d 4ab4 973d 24a1 263e
00000190: 13cd c0bd f018 003d 0688 46bc 6772 45bd
000001a0: 5a8f 8d3d 23e7 4f3e 2cdb 533d cfd5 f63d
000001b0: 8604 92bc 3a39 413e 2de0 bd3c bfaf a1bd
000001c0: 0237 f53d 5a75 edbd cbe3 efbc b133 02bd
000001d0: 3fea 303e 9a72 47be 39cd 1cbe 5940 833d
000001e0: adb4 9e3d 8f11 b03d 3c6a 48bd 8215 9e3e
000001f0: 32b2 77bd 7275 34be a429 a0bd d53f e83c
00000200: 81ba 54be 22c6 003e a5aa 27be c967 b1bd
00000210: 5e80 78be cd7e 8fbe 7783 bc3d 8711 5bbd
00000220: a08e 1bbd d020 eb3d b562 0ebc f501 d3bd
00000230: eaf8 023e 9497 4a3d 4bb5 643d 375f 20bd
00000240: 659e 06be 8bd1 b33d 78fd 16be 83a3 c1bd
00000250: 6797 1abc 241a eabd fd89 6f3e 8209 2abe
00000260: c8a5 473d 9172 3fbe a54c cabd fdb9 febd
00000270: 9505 8dbc 8eed 1b3d db27 643d 0208 23bd
00000280: 243f 883d be29 e23c bd44 743e 097c ae3d
00000290: ab47 45be 91c8 483e 5813 4ebe 54b5 e7bd
000002a0: fdd4 93bc e904 443d 705b ad3a 1558 60be
000002b0: 6b67 44be 4ab8 123e 7e02 2dbe dc46 a73d
000002c0: 2bc7 15be a0c5 a33d 5ea4 7d3d 15d0 643e
000002d0: d7e3 09be bf44 873c a4ff 7abd 1a52 2cbd
000002e0: 59eb 08be c6e6 62be 03df 0dbe add8 07bc
000002f0: fbbc 993c 530f 0ebe ab2c 2cbe 7624 89be
00000300: d697 a3bc 3866 12bd cf3a 923d ffc2 263d
00000310: 173e fe3c 117c 63bd b6c8 b1bd 93b1 c1bd
00000320: 7834 05be 16d6 a7bd 849d 78bd 7fe1 59bc
00000330: b00b 73bd 3fa2 cebd 2c5a 37be 7c07 3cbe
00000340: 5fe2 9bbc 9166 1fbd 2058 0e3e 4418 0a3e
00000350: aa9a 0a3e 95f2 4e3c d968 b5bd 3b8d f23c
00000360: b1bf 34bd 9203 43be 88be a0be 9c01 913c
00000370: 4884 073d 11d3 5c3e 200a 6ebd 6502 6b3d
00000380: dd1d 003d f9b9 08be ac52 66bd d4f6 e1bc
00000390: 4104 e63d 5081 2fbe a536 893d feb5 cfbd
000003a0: aab6 4bbd d4e3 803d 1567 373e eaf6 e5bd
000003b0: 9561 473d c91e ff3d 04a0 9b3d 598d 84bd
000003c0: 8051 27bc 27a9 4a3d 61c3 26be 22f0 e2bd
000003d0: e745 10bc 0397 aebd fdfd b13c 9d69 ca3c
000003e0: 9dd5 e93c 7bd2 73bd f9e2 be3c 6adb 273e
000003f0: a5c3 dc3c d7d7 1cbd 3ebb adbd a2fb c6bd
-0.04605422 0.23416275 0.108618654 -0.2187221 -0.032225266 0.028240139 -0.027571214 0.025816113
-0.31086722 0.058155727 0.16616835 -0.077425 0.09438402 0.050869707 0.16992572 0.23463745
-0.19708213 -0.03233059 -0.049184617 0.20675421 0.122640945 0.21193345 -0.20276164 -0.088792756
-0.116290584 -0.018800002 -0.35634375 -0.18018268 -0.5529978 0.2345906 -0.3042762 0.15263252
-0.1283502 0.020324342 -0.049891118 0.15727448 0.110629745 -0.17223313 0.021507202 0.12398015
0.0048816833 0.035466935 -0.0636432 -0.06004436 0.045590177 0.1843121 -0.1401622 0.1101384
0.07989643 -0.039168242 -0.016078826 0.2427173 0.09471057 0.13267273 0.22480278 0.11369942
-0.23316836 -0.051634483 -0.019504322 0.041693702 -0.16527972 -0.033473324 -0.122148864 0.074380316
0.11547929 -0.12028349 -0.09350818 0.25953463 -0.24052359 -0.14699608 0.1828918 0.19351584
-0.074629456 0.15989709 -0.08680024 -0.011618773 -0.23969856 0.020047447 -0.17703004 -0.05501799
0.017978031 -0.35824755 0.19771206 -0.23456047 0.011373568 0.14860852 0.049188647 0.051345363
-0.15369904 0.08537397 -0.12585776 -0.081374966 -0.04253208 0.12102086 -0.17868665 -0.13730173
-0.2875049 0.089390405 0.07407434 0.16272408 -0.09414115 0.031273782 -0.012117391 -0.048204806
0.06912108 0.20303015 0.05172269 0.120524995 -0.017824423 0.18869486 0.023178184 -0.07894849
0.119733825 -0.11594649 -0.029283425 -0.031787578 0.17276858 -0.19477311 -0.15312661 0.06408758
0.07749305 0.08597099 -0.048929438 0.30875784 -0.060472675 -0.17622927 -0.07820442 0.02835075
-0.2077427 0.12575582 -0.1637369 -0.086623736 -0.24267718 -0.2802643 0.092047624 -0.053483512
-0.037977815 0.11480868 -0.008690526 -0.10303108 0.12790266 0.049460962 0.055836957 -0.039153304
-0.1314636 0.087802015 -0.14745128 -0.094550155 -0.009435511 -0.11430767 0.23392482 -0.1660519
0.048742086 -0.18696047 -0.098779 -0.12437818 -0.017214576 0.038068347 0.05570207 -0.03980256
0.06652668 0.027607795 0.23854347 0.085197516 -0.1926562 0.1960776 -0.20124567 -0.113138825
-0.018045897 0.047856245 0.0013226103 -0.219086 -0.19180076 0.14328113 -0.16895482 0.08167812
-0.14626758 0.07996678 0.06192433 0.22345002 -0.1346582 0.016512273 -0.061278954 -0.042070486
-0.13371028 -0.22158346 -0.13854603 -0.008291406 0.01876687 -0.13873033 -0.16813914 -0.2678563
-0.019969862 -0.035742015 0.07140123 0.040713307 0.031035466 -0.05553824 -0.08680861 -0.09457698
-0.13008296 -0.081951305 -0.060697094 -0.013298391 -0.059337318 -0.1008954 -0.17905492 -0.1836223
-0.01902884 -0.038916174 0.13900805 0.13485819 0.13535562 0.012631078 -0.08857889 0.02960836
-0.044128124 -0.1904433 -0.31395364 0.017700963 0.033085138 0.2156489 -0.058115125 0.05737533
0.03127848 -0.13352193 -0.056231186 -0.027583517 0.1123128 -0.17139173 0.06699876 -0.10142134
-0.04973475 0.06293455 0.17910416 -0.11228736 0.048677046 0.12457044 0.0759888 -0.064722724
-0.010212302 0.049477722 -0.16285469 -0.11080958 -0.0088057285 -0.08524897 0.021727556 0.024708563
0.028544242 -0.0595269 0.023301588 0.16392294 0.02694876 -0.03829178 -0.08482979 -0.09715964
