Assets/models/Chase-962477.onnx (onnx, 72639 bytes, 7 tensors)

action_model._continuous_distribution.log_sigma f4 [1, 2]
000000 69 8d a7 bf a7 6b 98 bf
       -1.309003 -1.1907853

action_model._continuous_distribution.mu.bias f4 [2]
000000 39 68 a2 bc 41 c3 ae 3c
       -0.019825088 0.021333339

action_model._continuous_distribution.mu.weight f4 [2, 128]
000000 27 61 f3 bc 16 47 e0 3c 33 e1 f4 3b ac 4e af 3d
       -0.029709412 0.027377646 0.007473135 0.08559927
000010 e7 f6 3e 3d 17 d1 03 bc 12 6d d2 3c 1c 3a 6c bd
       0.046622183 -0.008045456 0.025686774 -0.057672605
000020 ea 10 a3 bd a0 8a 4f 3d 30 ec 47 ba 25 ea ab 3a
       -0.079622105 0.050669312 -0.0007626442 0.0013116045
000030 20 5b 8d 3b 8f b6 79 3d ab a8 b2 bc 7b ee 18 bd
       0.0043138415 0.060965117 -0.021808943 -0.037336808
000040 14 47 dc 3b 2f 5a 11 bc db 6d 30 bd 40 7d e9 3b
       0.0067223404 -0.008871599 -0.043073516 0.0071255267
000050 0b 45 74 bb 2a 87 7d 3c c1 50 9b bc f9 08 b9 3d
       -0.0037272598 0.01547412 -0.018959405 0.090349145
000060 9c 2a 02 3a 0c 79 83 bc b9 35 cc bc 4e fe c7 3c
       0.0004965456 -0.01604893 -0.02492796 0.024413254
000070 68 f6 48 bc ca b9 52 3c 55 b4 1f bc 5f 15 34 3c
       -0.012265779 0.012861678 -0.009747584 0.010991423
000080 4b bd 3e bd 40 ac 89 3d 07 b0 10 3c c3 6b c0 3d
       -0.046567243 0.06722307 0.008831031 0.09395554
000090 05 f7 ae 3c c8 72 44 bc e3 3b 6b bc 1a db 04 3c
       0.021358022 -0.011990257 -0.01435754 0.0081088785
0000a0 94 43 cd 3b e7 e6 9e bc 81 2c 1c bc 52 33 01 3c
       0.0062641595 -0.019397212 -0.009532095 0.007885771
0000b0 cc 6d 21 3b d1 b7 08 3d 6a 6d d7 3d 06 8e f9 bd
       0.0024632094 0.033378426 0.10518916 -0.12185292
0000c0 97 03 78 bc 63 aa 1b 3c 56 07 35 bb 7d f1 f9 3c
       -0.015137575 0.009501073 -0.002762278 0.030510658
0000d0 cf 0a 27 bc 3e a9 65 bb eb e6 0a bc c3 9f 87 3b
       -0.010195448 -0.0035043503 -0.008477907 0.004138918
0000e0 08 ab 7f bd 4b 7e 66 3c 80 27 06 bc 7a 16 02 bc
       -0.062418967 0.0140681965 -0.0081881285 -0.007939929
0000f0 56 a8 84 bb 33 9d 8b 3c c3 71 3f bc 78 92 e6 bc
       -0.0040483875 0.017042732 -0.011684838 -0.028146014
000100 b5 ba 8d bc 11 5d 1c bb 57 46 54 3d 98 4f 7c 3c
       -0.017300943 -0.0023859183 0.051824894 0.015399836
000110 51 5f 27 3d e7 bc 91 bd fa 14 64 3d b0 ea d5 3c
       0.040862385 -0.071161084 0.055684067 0.026112884
000120 3b f0 6c bb 8e bb 99 bd 52 58 5e bb 56 bb 8b 3c
       -0.003615393 -0.07506476 -0.0033927155 0.017057102
000130 e9 ff 74 3c 65 cc a9 3c 63 43 16 3b 70 17 36 3b
       0.014953592 0.020727346 0.002292835 0.0027784966
000140 af 55 ad 3c 18 a8 90 bd 29 f5 a9 bc bd 3b 97 bc
       0.021159021 -0.07063311 -0.020746784 -0.018461103
000150 32 a1 ea 3d 6f 0b c0 3c ac c5 92 3d 77 f8 10 bc
       0.11456527 0.023442952 0.07166609 -0.008848301
000160 08 7a d1 3a 58 d4 4d 3c 9a b8 57 3d eb 7f 45 3d
       0.0015981803 0.012562834 0.052666284 0.048217695
000170 75 2d 35 3c d6 ed f3 bc 50 69 8b 3c 3d f8 f5 3a
       0.011058201 -0.029776495 0.01701799 0.0018765997
000180 52 d2 ec bc 7d 07 93 3b 5a a1 9d bd b6 47 32 bd
       -0.028908882 0.0044869767 -0.07696791 -0.04352542
000190 7b fa ad 3c 88 3f 3f 3b 67 87 d4 bd 60 f0 05 3c
       0.021237602 0.0029182155 -0.103773884 0.008174986
0001a0 ce 5e 45 3c f7 8f a4 bc be 4f 69 bc dc 6a 9d 3c
       0.012046529 -0.020088179 -0.014240203 0.019215994
0001b0 63 3e 80 bc 79 b9 37 3c c9 ea 0d 3d 31 09 6d 3d
       -0.015654748 0.011213654 0.034647737 0.057870094
0001c0 6c 0f 17 3c 83 41 3f 3b ea 61 3d 3d 23 db 2f 3c
       0.009219985 0.0029183335 0.046235956 0.010733399
0001d0 11 fd 27 be 66 1a b7 3c 8b 4f ce bc 6a 9e 5e 3b
       -0.16405131 0.022351455 -0.025184413 0.0033968934
0001e0 98 22 87 3d 23 b9 88 3d b4 f8 11 3b 1c 6b 70 3c
       0.06598395 0.06675937 0.0022273483 0.014673974
0001f0 27 59 88 3b 06 a8 86 bc b6 fd 11 3c f1 4c 05 bd
       0.0041610184 -0.016437542 0.008910587 -0.03254408
000200 62 f8 33 3d d4 3c 69 3c 2d cf bd 3c 1a c9 ab bd
       0.04393805 0.014235694 0.023170078 -0.083879665
000210 4a ae ff 3d 9b 10 55 3d ea 95 be 3c 6c d3 55 bd
       0.12484415 0.05201779 0.023264844 -0.05220358
000220 b2 7a 9e bd 0f 13 73 3d da 81 cf 3c f5 0e 33 3d
       -0.07738246 0.059344348 0.025330473 0.043715436
000230 ea d1 d0 3c 7b 3b a7 bd 01 06 52 3d aa 7a 14 bc
       0.02549072 -0.08165642 0.051275257 -0.0090624485
000240 ec a9 7c bd 0b 4f 39 3c 47 3b 35 3b 36 7a 07 3e
       -0.061685488 0.011310349 0.002765374 0.13230214
000250 a6 75 77 bc 7a 18 8d 3d cf 39 65 3e 7c c6 7a bd
       -0.015103733 0.06889434 0.22385333 -0.061224446
000260 3a f4 f6 3d 3e 80 01 3d 9a f9 48 bb ee cf 5a 3c
       0.12058301 0.031616442 -0.0030666352 0.013355238
000270 3c e2 d4 3c 65 57 ac bc ba b5 a7 3a e2 ee 10 3d
       0.025986783 -0.021037767 0.0012795248 0.035384066
000280 30 8f 20 3d 40 8e 6f 3e dd bc 82 3c 47 44 8c 3d
       0.039199054 0.23394108 0.015959198 0.0684896
000290 f8 0a 84 bc 35 0d 67 3c 10 de 37 bc fa 64 3e bd
       -0.016118512 0.01410227 -0.011222377 -0.046483018
0002a0 d4 86 b2 3c d9 e5 05 3d e3 f1 6d 3d 38 0e 49 3d
       0.021792807 0.032689903 0.05809201 0.049085826
0002b0 d7 0d 92 3d 29 cb 39 3d 07 f9 d4 bd 39 2a ba bd
       0.07131546 0.045359764 -0.10399061 -0.090900846
0002c0 5f 5a 9e 3d 92 87 d9 bb d3 cd b7 3c fd 05 9b bd
       0.07732081 -0.0066384757 0.022437012 -0.075695015
0002d0 41 6d 3f 3d 3d 12 dc bc 93 f3 eb bb d2 51 de bc
       0.046735052 -0.026864165 -0.007200667 -0.027138624
0002e0 2b f1 8d bc 51 e9 6c bd 3a 32 ea 3c 55 a1 33 3b
       -0.017326912 -0.057839695 0.028588403 0.0027409394
0002f0 29 a5 65 3d f9 bd c1 3c fc 34 1c bb f6 e5 2c 3c
       0.056065712 0.023650156 -0.0023835292 0.010552874
000300 13 03 49 bd 25 ae cb 3c 28 3a 5a 3c 2b 9d 65 3d
       -0.049075197 0.024863312 0.01331953 0.05605809
000310 ea 0d 89 bd f2 c6 87 bd 95 d3 9f 3d 9e c9 bf bc
       -0.06692107 -0.06629743 0.07804028 -0.023411568
000320 61 10 23 bc ad 74 00 3e f8 46 ad 3b 53 5b 00 3d
       -0.0099526355 0.12544508 0.005288001 0.031337094
000330 f7 13 5b 3d 07 68 25 bd 65 74 19 3c c6 23 8f bc
       0.053485837 -0.04038241 0.0093661295 -0.017473113
000340 7a 78 5b bb 95 7a 27 3e 6d 80 04 3d ff 62 07 bd
       -0.0033488558 0.16355355 0.03234904 -0.033053394
000350 e9 39 f5 bc 06 c7 48 bc a9 65 6e bd 9e 41 c5 bb
       -0.02993484 -0.012254482 -0.05820242 -0.006019785
000360 c2 7a 18 bc 98 b6 8c bc 10 92 f9 bc a4 71 3f bd
       -0.0093066115 -0.017176911 -0.030465156 -0.046739236
000370 72 f5 ef 3c 3b 68 b6 3c 28 83 f8 bb d7 cd 99 3c
       0.029291842 0.022266498 -0.0075839944 0.01877491
000380 4f 9b 02 bc 5b 02 3d 3d 53 2e b7 bc 52 79 3f bb
       -0.007971599 0.046144824 -0.022360956 -0.00292166
000390 28 d2 b8 3c 28 0f 1f 3d 8b 83 8e 3d bf b9 67 bc
       0.022561148 0.038832814 0.069586836 -0.014143406
0003a0 80 b5 f4 3c 77 fd 6b bc 7b 31 1d be 93 7f 64 bd
       0.029871702 -0.014403692 -0.15350907 -0.055785727
0003b0 43 b2 08 bc 05 b8 f3 3b 77 2e 36 bc 68 00 30 3e
       -0.008343282 0.0074377083 -0.0111194765 0.17187655
0003c0 1c 23 1a 3d 63 59 83 bb aa 93 48 3b d6 ce d4 3c
       0.03763114 -0.0040084585 0.0030605593 0.025977533
0003d0 33 0d ca 3c f8 ec 5a 3d c1 1e 37 bd 0c 45 a0 3c
       0.024664497 0.053448647 -0.044707064 0.019564174
0003e0 6d 9b c7 bc 4d 01 bd bd cd f7 2f 3c 30 5d d6 3c
       -0.024366105 -0.09228764 0.010740233 0.026167482
0003f0 b5 2e 58 bc 94 a4 44 bc f0 ee a9 3b 82 2c ac 3c
       -0.01319473 -0.012002129 0.0051859543 0.021017317

network_body._body_endoder.seq_layers.0.bias f4 [128]
000000 c4 50 86 3d 9f 0f db bd e0 35 42 bd 52 3e a1 bd
       0.065583736 -0.10696339 -0.04741466 -0.07873215
000010 be 98 13 be 26 11 41 be 22 67 8f 3d 03 09 15 bd
       -0.14413735 -0.18854198 0.07002093 -0.036385547
000020 50 69 3b bc be 2a be bd c0 9b 74 3b d5 e5 14 3d
       -0.011438683 -0.09285496 0.003732428 0.036351997
000030 6e dd ce 3c 60 20 f9 bc 89 28 0d bd de 24 7d 3d
       0.02525207 -0.030410945 -0.034462485 0.061802737
000040 c4 a4 d6 bd 87 17 22 be b8 df a6 bd ba f6 20 bb
       -0.10480645 -0.15829287 -0.0814814 -0.0024561123
000050 56 2d 8d 3d ce fd 5e 3c 23 b5 e6 b9 ed d6 e5 3d
       0.06893413 0.013610316 -0.00044003976 0.112226345
000060 6a 05 4b 3b 17 a8 7b 3d dd 48 92 3d 36 a3 82 bd
       0.0030978569 0.0614396 0.07142804 -0.06378786
000070 6b b8 ca bc ac 4b ed 3d a6 61 18 3b a0 bc 15 bc
       -0.02474614 0.11586699 0.0023251562 -0.00913921
000080 04 55 4c be 52 2f b8 bd 0a 0f 86 bd b6 1f bf bc
       -0.19954306 -0.08993401 -0.06545837 -0.02333055
000090 f2 59 7a 39 c2 57 7f bd 86 ed c8 3d 97 73 e2 3d
       0.00023875365 -0.06233955 0.09810929 0.11057203
0000a0 b6 8a df 3b 5b 12 5a bd 1e c1 85 bd 46 c5 90 bc
       0.0068219556 -0.05324016 -0.06530975 -0.017672192
0000b0 f6 14 5a bc 7c 6b 9f 3c 17 05 dc bd 0b 8e 88 bd
       -0.013310662 0.019460432 -0.10743158 -0.066677175
0000c0 d3 47 88 bd cf d3 9b bd 00 ab e8 3d 5e 34 82 bc
       -0.066543244 -0.07608759 0.11360741 -0.015894111
0000d0 cb cd 29 bc 96 69 13 be 21 53 92 bd de 3f 09 3e
       -0.010364006 -0.14395747 -0.07144762 0.1340327
0000e0 db 69 7d 3d c0 d1 d3 3c b6 48 02 3c 82 d4 e5 39
       0.06186853 0.025856853 0.007951906 0.00043836614
0000f0 f9 6c c7 3a a9 e6 14 3d 4b 3b 90 3c f5 03 89 3c
       0.0015214971 0.036352787 0.017606398 0.01672552
000100 d7 02 2b 3e d0 cf f3 3c 12 5b e6 bc 4e a4 bb bc
       0.16700302 0.029762179 -0.028119598 -0.022905495
000110 54 11 a2 bd 9f e0 34 be a3 2b ae bd 15 a6 89 bd
       -0.07913461 -0.17663811 -0.08504417 -0.06721131
000120 c9 20 69 3d 28 d9 c3 bd c7 02 24 3d 80 57 cd bb
       0.056916032 -0.09562904 0.04004171 -0.0062665343
000130 44 f9 bb bd e1 9e ec 3c f1 2c 7f 3b 56 3a 78 bd
       -0.09178403 0.028884353 0.00389367 -0.06060251
000140 99 9f 07 bd 26 7b 50 be 30 f9 b1 3d be c6 13 3e
       -0.03311119 -0.20359477 0.08690107 0.14431283
000150 78 a9 16 3d 1d a3 e7 bd 98 8c a1 bd cf a2 a2 3c
       0.03678271 -0.11310408 -0.07888144 0.019853024
000160 f9 7c 9c bd 06 7e 2d 3d 4b 12 33 be 4f b6 20 be
       -0.07641024 0.042356513 -0.17487447 -0.15694545
000170 7d 92 9b bd 7f 96 aa bc 3f 06 06 3d 2f 6f 8e 3d
       -0.075963 -0.020823715 0.0327208 0.069548
000180 b3 40 90 bc 8b 0b 07 3c d4 0f ff bd 22 e0 8f bd
       -0.017608976 0.008242498 -0.12454191 -0.07025172
000190 a0 b5 25 be 7e c8 3d 3d 26 95 f3 bd 02 c2 b8 3c
       -0.16182566 0.046333782 -0.11893682 0.022553448
0001a0 ca 6f 7f bd 3f b2 4d bd b9 f1 0b be 15 eb 3c 3e
       -0.06236247 -0.050218817 -0.13666429 0.18449052
0001b0 04 b2 f9 3d 2a 3f 62 3c f6 db 80 bd 00 40 b0 bd
       0.12192157 0.013809005 -0.06291954 -0.08605957
0001c0 b5 3f bf bd e2 fa 01 be 62 1d 94 b7 53 8c 9b 3b
       -0.09338323 -0.1269336 -1.7656657e-05 0.0047469526
0001d0 9c f0 ab bd d0 5e a3 3c e2 da b3 bb 0e ae ac bd
       -0.08395502 0.019942671 -0.0054887393 -0.08431636
0001e0 eb 4a 75 bd 41 26 4b 3d c2 8a 0e bd 77 90 0f be
       -0.0598859 0.04959703 -0.0348003 -0.14019953
0001f0 95 29 36 3d 81 5a 0e 3d cc 93 c5 bd ad 29 4b bc
       0.04447325 0.03475428 -0.09647331 -0.012400073

network_body._body_endoder.seq_layers.0.weight f4 [128, 6]
000000 dc 0d 68 be 41 20 03 3f ee 36 1c bc cb c1 c6 be
       -0.22661537 0.5122109 -0.009534581 -0.38819727
000010 da 83 87 3d 2f 54 98 3e 12 3c 37 3f 81 57 6b 3e
       0.066169456 0.29751727 0.71576035 0.22982599
000020 89 64 35 3e 7f 35 f0 bd a1 dd 6a be 44 23 90 bc
       0.17714132 -0.117289536 -0.22936107 -0.017594941
000030 22 4a ce be 23 60 2b be e8 e0 d5 be af 55 01 3f
       -0.40290934 -0.16735892 -0.41773152 0.5052137
000040 36 2c 13 be 93 4d 3b be 15 2c 03 3e 56 03 9f be
       -0.14372334 -0.18291311 0.12809785 -0.31057233
000050 c2 05 18 bf 27 72 0d bf 4a a2 7e 3d 6d b3 c7 be
       -0.59383786 -0.5525231 0.06216649 -0.39004079
000060 c6 4d 8d 3e 29 dd 22 3e 3a 6e b5 bc 1a 0e 11 3f
       0.275984 0.15904678 -0.022147287 0.5666214
000070 df d9 bb 39 34 bd 58 3e aa 10 3f 3e 15 2c cd bb
       0.00035829746 0.21165925 0.186587 -0.0062613585
000080 d1 24 02 3f 8b 61 46 3e 44 85 6a bd a9 b8 35 bd
       0.5083743 0.19373147 -0.057256 -0.04436556
000090 32 f9 53 3e be ec 4c 3f 26 f9 c3 be e2 7f 29 3e
       0.20700529 0.8004874 -0.38276023 0.1655269
0000a0 73 8a 94 3f e1 8e b3 3d 5f 79 b7 be d5 5e 8a 3e
       1.1604751 0.08767486 -0.35834786 0.27025476
0000b0 18 5c 50 be ba 9a d8 3e e0 bc b7 bb 44 4c be 3e
       -0.20347631 0.42305547 -0.0056072325 0.3716756
0000c0 97 f9 35 3e 47 8a 42 3d 2b 69 5d be af 22 1b 3f
       0.17770992 0.047495153 -0.2162215 0.605998
0000d0 4d 0b df be 91 ce 19 be 64 5a 84 be 45 96 23 3f
       -0.4356331 -0.15020205 -0.25850213 0.6390117
0000e0 52 e5 03 3e dd 0d b0 be e9 3f 27 3f 81 98 02 bf
       0.12880448 -0.34385577 0.65331894 -0.5101395
0000f0 bd 27 08 3e 73 58 58 bf c2 5e 68 be 7e 7f 26 bf
       0.13296409 -0.8450996 -0.22692397 -0.6503829
000100 f8 be 88 be b4 97 94 bd f4 fb 88 3e b2 fd 73 3d
       -0.26708198 -0.072554976 0.26754725 0.059568115
000110 89 25 99 3e 8e 7c e6 3e 3e f2 01 bf 05 89 00 be
       0.2991145 0.45016903 -0.5076026 -0.12552269
000120 a8 5e f0 bd bf cf 59 3f f6 2a 3e bf 88 45 e8 3c
       -0.11736804 0.8508262 -0.74284303 0.028353468
000130 c8 d0 81 be a8 2b 17 3f 17 c1 72 be 77 38 44 bd
       -0.253546 0.5905099 -0.2370647 -0.04790541
000140 21 7b 6d be 75 c6 5a bf 6b c7 cb be 24 71 c2 be
       -0.23191501 -0.8545907 -0.3980058 -0.37976944
000150 9a 98 42 be 84 01 03 3e f7 9d 8d 3e 6d b3 6f 3f
       -0.19003525 0.12793547 0.2765958 0.93633157
000160 2d 57 d9 3d 9d 31 c3 be fe 35 a1 bc 80 6f 2a 3f
       0.106123306 -0.3812379 -0.019679066 0.66576385
000170 5d 70 01 3f 4f 50 b6 be a8 bf 86 3e 1f 55 ae bc
       0.5056208 -0.35608146 0.26318097 -0.021280823
000180 f3 32 21 bf fa bf 18 be ac 7c 71 3e ea fb 69 bf
       -0.6296837 -0.14916983 0.23582715 -0.91400015
000190 a9 7a ba 3e 36 6e 6a 3f a7 d3 33 3d fc 77 43 3e
       0.36421707 0.9157442 0.04390302 0.19088739
0001a0 c0 ed 08 be 25 2e 07 be d1 52 55 3e 91 e3 2a 3d
       -0.13371944 -0.13201196 0.20832373 0.04172093
0001b0 99 69 ac be 5b 86 a6 3e 71 1d 2b 3d 6e 93 ed bd
       -0.33674315 0.3252438 0.041776124 -0.116003856
0001c0 b1 6d 26 be fd 52 1d 3f a5 4b 2e 3f f7 25 3b bf
       -0.16252781 0.61454755 0.68084174 -0.73104805
0001d0 7d db e4 be dd 95 34 3e 63 76 4b 3f ff 96 e3 3e
       -0.44698706 0.17635293 0.7947752 0.44451138
0001e0 dd 22 e9 be 61 d6 36 3e 88 c5 1c be 15 58 84 bf
       -0.4553441 0.17855217 -0.15309727 -1.033938
0001f0 18 be dd be ef 4b 50 bf 65 d2 bd be d3 73 10 be
       -0.43309093 -0.81365865 -0.3707458 -0.14106683
000200 a0 0c f4 be 1f 86 26 3c b5 30 29 bd e4 71 e1 3e
       -0.47665882 0.010163813 -0.041306216 0.44032204
000210 7f d6 06 bf 32 e2 07 be 21 2e cb be e9 ea 39 3e
       -0.52671045 -0.1326988 -0.3968363 0.18156017
000220 b2 a5 af 3d 03 ab 53 bf 20 2f 55 3f 98 49 e1 3c
       0.08576526 -0.8268282 0.8327503 0.027500913
000230 08 1e 41 bf 7d 5b fc be 52 cb 2e bf 84 f8 c4 3e
       -0.7543645 -0.4928855 -0.6827899 0.38470852
000240 87 58 c6 be 25 37 c2 be c3 c8 24 bf 51 fd d8 be
       -0.38739416 -0.37932697 -0.6436884 -0.42380765
000250 d3 3b fe bd 0b 03 a3 be 3b 43 a2 3e 91 69 34 bf
       -0.12413754 -0.3183826 0.31691918 -0.7047358
000260 39 ed 2b 3e fb 22 68 be 1a ee 3e 3f 8b f0 21 3c
       0.16789712 -0.22669594 0.74582064 0.00988401
000270 32 73 b1 be 11 bc ae 3e 4a cc b8 bd 19 bf 67 be
       -0.346582 0.34127858 -0.0902334 -0.22631492
000280 9c 7c 5c 3e 55 fa 1f be 38 70 86 be 84 3a 1b bf
       0.2153191 -0.15622838 -0.2625749 -0.6063616
000290 ab 8a e6 be b5 48 b7 3e 2c 3e 3a bd ea 6a 68 be
       -0.4502767 0.3579766 -0.045469448 -0.22697034
0002a0 65 c2 f1 be 57 83 8e 3d 0e 4d 01 be 6f 75 87 bf
       -0.47218624 0.06958645 -0.1262705 -1.0582713
0002b0 28 c8 b2 bf 33 38 65 be 4d 97 42 3e d4 e5 27 3e
       -1.3967333 -0.2238472 0.19003029 0.16396266
0002c0 9b 30 ff be 96 ca f5 3e 67 d3 a3 bd d2 5e 11 bd
       -0.4984177 0.48006123 -0.07999306 -0.03549082
0002d0 fa 8f 86 be b3 5f 08 be b6 f5 af be cb 45 14 be
       -0.2628172 -0.13317756 -0.3436715 -0.14479749
0002e0 e7 58 a4 3e d4 c3 41 bd 40 52 cd 3e 04 14 b6 3f
       0.32099077 -0.047305897 0.40101814 1.4224858
0002f0 5f 75 b6 3e fc 7f d9 3d ac d1 1e 3f 6d 96 be 3e
       0.35636422 0.10620114 0.62038684 0.3722414
000300 14 36 1a be ab ec 06 bf 5f 48 d3 3e ea e2 57 be
       -0.15059692 -0.52704877 0.41266152 -0.21082655
000310 aa 63 8b 3f 98 6a d7 3d 5b de d6 3e 64 b6 fd be
       1.088979 0.10518378 0.4196652 -0.49553216
000320 ce 19 62 be 1d 0c 46 bf 1e e4 02 3f 66 72 55 3e
       -0.22080156 -0.77362233 0.5112933 0.20844421
000330 b5 bd 68 bf 4d 28 db bc 60 45 31 3e 44 f3 34 3d
       -0.9091447 -0.026752615 0.1731162 0.04417731
000340 d1 22 8a 3e d3 5d b6 3e 95 ff ec be 62 a4 2f bf
       0.26979688 0.35618457 -0.46288744 -0.68610203
000350 07 9d 7c be 33 40 2f 3f 81 22 b4 be b2 79 d8 3e
       -0.24669276 0.68457335 -0.35182574 0.42280346
000360 bf 41 0b 3e 89 e8 f8 be 66 a8 56 be ff fa c0 bb
       0.13599299 -0.4861491 -0.20962676 -0.005889296
000370 c1 c2 03 3f 1d f0 1a 3d ac 80 0f bf 15 19 8c 3e
       0.51469046 0.037826646 -0.5605571 0.27362886
000380 c7 bf 34 3e e5 38 8d 3e 61 80 aa be 6b a4 37 3d
       0.17651282 0.2758247 -0.3330107 0.044834536
000390 31 54 5d 3d 66 a9 3d bf 9b c3 bf be cf 23 72 3d
       0.05403537 -0.74086607 -0.37453923 0.05911618
0003a0 c8 19 67 3e b3 9b bc be 9c a0 6b bf 8f 58 82 bf
       0.22568429 -0.3683754 -0.92041945 -1.0183276
0003b0 4c 80 b3 3d 05 af 05 3e 6e c0 0f 3e c3 8e 2a 3e
       0.08764705 0.13055046 0.1403825 0.16656022
0003c0 a7 72 23 3f 16 31 21 bf 18 f8 70 be db 15 8f 3d
       0.6384682 -0.62965524 -0.2353214 0.069865905
0003d0 23 0b d5 be 40 f3 0d be 3e 3f d1 be 7a 1d 3b be
       -0.4161006 -0.13862324 -0.40868562 -0.18272963
0003e0 f2 5e 1e 3f 3f 7f d5 3e 7b a2 b2 bb f5 36 93 bf
       0.61863625 0.41698644 -0.005451498 -1.1501147
0003f0 09 e3 e3 be f4 f0 02 3f 94 bc 06 3e fc e6 bf bd
       -0.44509152 0.51148915 0.13157874 -0.09370229

network_body._body_endoder.seq_layers.2.bias f4 [128]
000000 93 e0 2a 3c 60 08 2a bd b0 a0 8c bd 31 e7 0e 3b
       0.010429519 -0.041511893 -0.06866586 0.0021805281
000010 a0 6a ff bc f7 52 50 bd 1e 0d 83 bd 39 33 3b bc
       -0.031178772 -0.05086037 -0.06398986 -0.011425787
000020 2f 81 13 bd 89 43 9a 3c 88 bc 2c bd ae 96 c7 bd
       -0.03601187 0.018831031 -0.042171985 -0.09745537
000030 4d 5d 75 bc 24 cc 15 bd 48 dc 87 bd 27 63 9e bd
       -0.014975858 -0.036571637 -0.06633812 -0.077337556
000040 23 41 93 bd e0 fa 89 bd 4c 91 8f bd 0c 0b 01 bc
       -0.07190158 -0.06737304 -0.07010135 -0.007876169
000050 a6 2f 3b bd bf d4 a5 bd cc 3d ba 3a 90 5b 80 bc
       -0.045699738 -0.08097219 0.0014209091 -0.01566866
000060 d6 40 c0 bc 1a bd a3 bc 68 d5 80 bd b3 83 a5 bd
       -0.023468416 -0.019987632 -0.06290704 -0.0808176
000070 41 9c 05 bd f4 10 32 bd 6e b8 91 bc 27 79 76 bd
       -0.03261972 -0.0434732 -0.017788138 -0.060174134
000080 53 32 cd bd 98 74 29 bc 52 8c 90 bd a6 19 35 3c
       -0.10019364 -0.0103427395 -0.07058014 0.011053478
000090 33 26 92 bc f2 39 91 bd c0 d8 95 bd 5a 06 09 bd
       -0.01784048 -0.0709113 -0.073167324 -0.033453323
0000a0 9e 50 6a bd 70 6b 59 bd 74 b7 5e bd ee 9f 32 bd
       -0.05720579 -0.053080976 -0.054374173 -0.043609552
0000b0 b3 e3 aa bd 1e 0a f5 bc a2 79 58 3a 6a ad 82 bd
       -0.083442114 -0.02991205 0.0008257871 -0.06380732
0000c0 64 ef 0d bd aa 38 3d bd d6 1f 12 bd 97 c1 55 bd
       -0.03465213 -0.046196617 -0.035674892 -0.052186575
0000d0 51 73 8a bd 72 05 b8 bb e9 53 9a bd 51 f8 66 bc
       -0.06760276 -0.0056158835 -0.07535536 -0.014097289
0000e0 db 90 d4 bd 9c 14 1b bd 9f b2 49 bd 8b 1f 45 bd
       -0.103791915 -0.03786145 -0.049242612 -0.048125785
0000f0 93 28 0a bd 61 de 56 bd 0c 50 52 bd db a3 52 bd
       -0.0337301 -0.05245817 -0.05134587 -0.051425796
000100 2e ae 81 bc b3 42 42 bd 50 52 96 bc 81 80 9c bd
       -0.015830126 -0.04742689 -0.018349797 -0.07641698
000110 87 6f ae bd fe 3d 98 bd 25 9d 24 3c 8a 3b 36 bd
       -0.08517366 -0.07433699 0.010047232 -0.044490375
000120 73 de 30 bd 5e c5 79 3c af ca a5 bc bf ee 97 bd
       -0.043180894 0.01524481 -0.020238249 -0.07418584
000130 93 03 93 bd b1 9e 1f bd d1 8e 5a bd 93 25 08 bd
       -0.07178416 -0.0389697 -0.053358857 -0.03323896
000140 f3 da 99 bd c8 16 fb bc e7 a3 ab bd 5c 1e 0b bd
       -0.075124644 -0.030650511 -0.08380871 -0.0339645
000150 66 42 f3 3b 32 4a ce bc 8c 36 66 bd fb 5e 3f bd
       0.007423687 -0.025181863 -0.056204364 -0.04672144
000160 c8 bc 06 bd 54 fc 03 bd 08 e2 5a bd 9a 6c ef bc
       -0.03289488 -0.03222306 -0.053438216 -0.02922659
000170 86 6a 35 bd e6 ef 6c bd 7a 50 38 bd cf f4 ca bc
       -0.04429104 -0.057845972 -0.044998623 -0.024774937
000180 bc 2e 4b bd 95 3d 8b bd be aa 93 bd 1b 0f 9c bd
       -0.049605116 -0.06798855 -0.07210301 -0.07620069
000190 02 56 0a bd 68 c5 37 bd bb 46 13 3d fd 64 80 bd
       -0.03377343 -0.044865996 0.035956126 -0.06269262
0001a0 c3 b2 43 bd 10 a0 a5 bc fd 14 97 bd e5 1e 1f bd
       -0.047777902 -0.020217925 -0.0737705 -0.038847823
0001b0 31 72 48 bd 37 53 35 bd 45 ed ad bd 91 3e 66 3a
       -0.048937026 -0.044268813 -0.08492521 0.0008783127
0001c0 bc 05 56 bd 84 40 6f bd 2a 61 6a bd 07 32 5f bd
       -0.052251562 -0.058411136 -0.05722157 -0.05449107
0001d0 1e 18 41 bc f4 5c 82 bd 22 09 71 bd 85 bd 06 bd
       -0.011785535 -0.06365386 -0.0588466 -0.032895584
0001e0 01 20 a8 bc 68 1a 48 bd fa 50 b5 bc bc cf 47 bd
       -0.020523073 -0.048853308 -0.02213334 -0.048782095
0001f0 6f b9 73 bd 93 24 5e bd 71 3f 70 bd 31 94 93 bd
       -0.059503015 -0.0542341 -0.058654252 -0.07206

network_body._body_endoder.seq_layers.2.weight f4 [128, 128]
000000 4a df d9 3d 44 da 6f be fb 4c 1d bb 31 89 31 bd
       0.10638292 -0.23423105 -0.0024002183 -0.043343727
000010 30 50 20 3d 9d 8d 44 3d 66 a8 4d 3e d7 81 1f 3e
       0.039138973 0.047986615 0.2008377 0.15576874
000020 5d 22 8a 3d 21 c6 24 be 09 28 9b 3e 79 b2 55 3b
       0.067448355 -0.16091205 0.30303982 0.0032607599
000030 18 55 39 3d 7f 9e 93 3e 9a bf a5 3d 29 df 02 be
       0.045247167 0.2883186 0.08093186 -0.12780441
000040 fb f0 0b be 71 20 6a 3d e4 a0 a7 3b 4f 15 cc bd
       -0.13666146 0.057159845 0.005115615 -0.09965002
000050 ed 36 35 3d a9 69 f7 3d ff e4 e3 bd 8f d8 3b bc
       0.044241834 0.120807 -0.11127662 -0.011465206
000060 11 f2 fa bc 50 25 ef 3d a5 8c 2f 3d de 33 24 be
       -0.030633004 0.11677039 0.04285874 -0.16035411
000070 11 94 2d 3e 0f cb 22 3c 16 82 dc bb 0f ad 96 be
       0.16951014 0.009936108 -0.0067293746 -0.29428908
000080 cd 6a d6 bd 87 82 95 3e 57 3c 0f bd 14 69 cc bc
       -0.104695894 0.29201147 -0.034969654 -0.024952449
000090 96 76 37 3b 8e 54 68 3e bb a2 cf 3c d8 63 e5 3d
       0.0027994267 0.22688505 0.02534615 0.11200684
0000a0 c2 28 af 3c 9b 25 1c be db 36 87 bd 8b 0c 95 bd
       0.02138174 -0.1524872 -0.0660226 -0.07277783
0000b0 13 6d 5d 3d 41 21 cc 3d 2d c2 c6 3b c2 b4 2e 3d
       0.0540591 0.0996728 0.006065628 0.042652853
0000c0 c6 cc 15 be 14 dc 93 3e d1 a7 7b bd 10 ed b6 3c
       -0.14628896 0.28878844 -0.06143934 0.022329837
0000d0 a3 a2 25 3d 13 39 83 3c cd 83 83 bd 20 ae 51 3e
       0.040438306 0.016018426 -0.064216234 0.2047658
0000e0 7f 1b 05 3e 4c 28 6c 3e 39 59 be bc b0 22 0f be
       0.1299877 0.23062247 -0.023235904 -0.13978076
0000f0 fa 07 22 3d ef 67 39 3d e4 b3 98 bd 41 38 a0 3c
       0.03955839 0.045265134 -0.074561864 0.019558074
000100 46 a4 cd bd 8c 16 7a bd ee 60 87 be 11 5a bd bd
       -0.10041098 -0.06105666 -0.2644114 -0.092456944
000110 96 d4 6e bd 62 83 4b 3d 85 f8 ab bd 2f 0c d2 3c
       -0.058308206 0.049685843 -0.08397011 0.025640575
000120 36 93 f8 bd ec f6 c1 bc 5b 84 2b be 3a 42 42 be
       -0.12137453 -0.023677312 -0.16749708 -0.18970576
000130 f8 a7 50 3d 3c c7 da bd ed 25 78 be 32 78 53 bd
       0.050941437 -0.10682532 -0.24233218 -0.0516283
000140 c8 a8 21 3e dd 16 ff 3c 99 d3 63 3b 3c 6d 0c be
       0.15787041 0.031138832 0.0034763573 -0.13713545
000150 1c 43 a9 bd 7b 2e 9d 3d a9 20 dc 3d f0 a1 2f be
       -0.08264753 0.07674881 0.10748417 -0.17151618
000160 a6 c1 93 bd 3b bd 49 3e 59 dd c4 bd dc 43 0d 3e
       -0.0721467 0.19701092 -0.09612531 0.13795418
000170 aa 06 e0 3d 62 63 db 3d 4e 70 f7 bd 8d 06 12 3e
       0.10938771 0.10712315 -0.12081967 0.14260311
000180 4c 91 c7 3e 89 56 a7 bd b6 0b eb 3d 6b 27 e5 bd
       0.3897804 -0.08170802 0.11476843 -0.11189159
000190 1c cd 2f 3e 43 c4 8a be 4f 39 ae 3c 2c 78 67 bd
       0.17168087 -0.2710286 0.021267561 -0.05651109
0001a0 9c 7c df bd b2 a0 bc 3c 8c 5d bc 3d 54 6d 3e be
       -0.10912439 0.023025844 0.0919753 -0.18596393
0001b0 f0 2e 03 be cc a7 fa 3d 27 04 32 3d 2a fb 8d 3e
       -0.12810874 0.12239036 0.04346099 0.27730685
0001c0 1c e1 d7 bd 46 a1 6c 3c 1f bb 3f bd 1e db 3c 3d
       -0.10540983 0.014442747 -0.046809312 0.046107404
0001d0 46 82 bf bd 30 de 38 3e 23 df 0c 3e 95 39 98 bd
       -0.093510196 0.18053508 0.13756995 -0.07432858
0001e0 19 d3 e1 3d f9 da 38 bd 46 7d 31 3d fd d4 53 3e
       0.11026592 -0.045130704 0.04333236 0.20686717
0001f0 55 be a2 3c 09 cb 2f bd 84 b4 3e be 32 d2 9f be
       0.019866148 -0.04291824 -0.18623549 -0.31215054
000200 4b 36 78 3d 72 ca 9f bd c2 38 e2 bc 9a 6d 51 bd
       0.060598653 -0.07802285 -0.027614955 -0.051129915
000210 bc 4c ea bd 97 ee aa 3c f7 76 85 3d 4d 9d b2 bd
       -0.11440417 0.020865722 0.06516831 -0.08721409
000220 29 16 3a bc d9 31 25 3e f6 bd e5 3d 95 26 83 bd
       -0.011357822 0.16132297 0.11217873 -0.06403843
000230 2a 82 e2 3c 79 0a 91 bd f9 42 b2 b9 15 25 49 be
       0.027649958 -0.070820756 -0.00034000704 -0.19643052
000240 b2 ad ca 3a 4f fc 5b bd 83 3e d3 bd 34 da 6f bd
       0.0015463142 -0.053707417 -0.103146575 -0.058557704
000250 66 ff 00 bd a9 d3 17 be 6e f1 2a bd 47 fb 31 3d
       -0.031493567 -0.14826836 -0.04173415 0.043452527
000260 a6 9f 72 bc 22 49 6f bd 5d 4c 49 3d 9d a4 b0 bd
       -0.014808571 -0.058419354 0.04914509 -0.086251475
000270 16 e7 57 3c c9 ce 96 3d c9 df 73 3c 50 95 30 be
       0.013177654 0.0736366 0.0148848975 -0.17244458
000280 a9 a6 ab bd 8c 76 fb 3d b6 7a b2 3d b9 dc db bd
       -0.08381397 0.122784704 0.087148115 -0.10735459
000290 72 e6 7d 3d b1 bd 7a bd e2 7f 84 3d 02 20 3a 3d
       0.061987348 -0.06121606 0.06469704 0.04544068
0002a0 80 1e 14 3c f0 63 6f be f1 a6 1b 3c 6c 95 96 bc
       0.009040475 -0.23377967 0.009500251 -0.018381797
0002b0 b3 a7 74 bd dc 61 e5 bd 0e 60 d6 3d 8c e3 c3 bc
       -0.059730243 -0.11200306 0.1046754 -0.023912214
0002c0 f0 65 dd bd 46 f3 55 bd 4b f5 96 bd 0d 90 05 bd
       -0.10810459 -0.052233957 -0.07371005 -0.03260808
0002d0 00 c1 86 3d 08 53 13 bd 12 fa df bd 08 2b f6 bc
       0.065797806 -0.035967857 -0.10936369 -0.030049816
0002e0 35 b0 93 3b 48 70 26 3e bc da e8 3c 70 e6 e4 bd
       0.0045070895 0.1625377 0.028424613 -0.11176765
0002f0 1e da 96 3c 36 f4 1d be 1a ed 98 3c 7f f2 5e 3d
       0.018414553 -0.1542519 0.018667746 0.05443048
000300 8d 63 63 bd 0a 5d d5 bd 5d 3a 33 be e6 cc 6b bd
       -0.05551486 -0.104181364 -0.17502733 -0.057568453
000310 1e 2c 5a 3d cb 45 bc bd c8 cf b5 bc 91 a3 c8 bc
       0.05326473 -0.091929995 -0.022193804 -0.024492057
000320 e6 83 86 bc a0 18 26 3c e2 99 52 be 4c be 48 bd
       -0.016420316 0.010137707 -0.20566514 -0.049009606
000330 15 ff a5 bd d4 2e 9c bd c1 82 01 3e 3e 1a 34 bd
       -0.08105294 -0.07626119 0.12647535 -0.04397034
000340 bb d0 3f 3d c1 df 33 be 1f 89 1e 3d 25 43 24 3b
       0.04682992 -0.17565824 0.038704988 0.0025064435
000350 a5 59 64 3b 85 d6 d9 3c e4 71 01 be 6c ad 82 bd
       0.0034843471 0.026591549 -0.12641102 -0.06380734
000360 dd 6b 11 bd e6 ac 0a bd 90 e4 db bd b2 f7 5e bd
       -0.035503257 -0.033856295 -0.10736954 -0.05443544
000370 88 cf 4b 3c 13 fe a7 3c 71 2d ce bd e5 a7 0d bd
       0.012439616 0.020506894 -0.10067261 -0.034583945
000380 94 1c 37 bc e3 7a 77 bd 5b 57 80 3d f2 ab 79 bd
       -0.011176247 -0.06041993 0.06266662 -0.060954995
000390 18 f8 22 be 9d a3 fd bd dc cd 36 be 30 7e da 3c
       -0.15914953 -0.123847224 -0.17851967 0.026671499
0003a0 1f eb c9 3d 2b 85 fc bd a7 f9 17 be 4c 9c 85 bd
       0.09859299 -0.12330087 -0.14841329 -0.06523952
0003b0 21 28 dc bc 38 eb 6c bd 62 bd f4 bd f0 39 00 3e
       -0.026874604 -0.05784151 -0.119501844 0.12522101
0003c0 b4 22 17 be e5 a6 45 bc 2e 93 a6 3c d1 6f b2 3c
       -0.14759332 -0.012063717 0.020333853 0.021781834
0003d0 cf fe 4a be 7c a6 05 bd 91 df c7 bd c0 a0 0e be
       -0.19823764 -0.032629475 -0.09759439 -0.13928509
0003e0 0c da 40 3d 96 47 f6 3d 8b 2a 3d be 59 13 d3 bd
       0.047082946 0.12025373 -0.1847326 -0.10306425
0003f0 ee 05 83 3d 06 da 3f 3e cf cb 0b 3d 51 3e dc 3d
       0.063976154 0.18735513 0.034129914 0.107540734
