Assets/models/Chase-418773.onnx (onnx, 73663 bytes, 7 tensors)

action_model._continuous_distribution.log_sigma f4 [1, 2]
00000000: e6e7 32bf f9bd 09bf
-0.698851 -0.538055

action_model._continuous_distribution.mu.bias f4 [2]
00000000: 3423 973d 2b88 02bd
0.07379761 -0.03186814

action_model._continuous_distribution.mu.weight f4 [2, 128]
00000000: 858c 4dbc ef13 b33b 0d5d 433b 6fcf 9bbc
00000010: 7c9d 193d c0ec 5d3d 56e2 933d 9de8 213d
00000020: f043 0e3c c225 393d cce9 ca3c 70e3 793d
00000030: 4dd8 103d 3fee 163d 67b9 8d3d a075 a43c
00000040: 5cbe a7bc 978f 96bd ac59 1b3b 83fc 07ba
00000050: f4a1 f4bb 8e52 1a3d b3d1 15bb 418a 643d
00000060: e99c 053d a73b 9cbd 9200 2b3d 0aa2 38bd
00000070: 566e 55bd 1e74 af3b 2fae be3d 31e2 98bc
00000080: a9b8 503c efc5 f03c c7c1 173d e2e3 4cbd
00000090: 6368 1c3d e55b 97bd 44e4 713d 48e6 fa3d
000000a0: 8228 78bd f5f5 08bc e1f4 243d 5330 86bc
000000b0: 3e7b fd3c 81d1 413d d4da 85bc 1973 263d
000000c0: 6e12 87bc b4a2 4f3c 75cd 25be d473 41bd
000000d0: 1e24 da3c c4a7 d1bc 6fa9 26bd 3bdc eabd
000000e0: 209e f53c 6851 883d 9f6e 9cbc d614 8a3d
000000f0: 1465 e43d 9e9a 353d f4c3 aa3d dd7c b13d
00000100: 9a24 0a3c da04 8ebd ff4b 373d 8da5 e7bb
00000110: b9a0 80bd 6428 023d e609 063d f88f 36bb
00000120: 40de 833d 63e0 a53c 46d7 583c faf0 9dbd
00000130: 5442 a7bc 0a14 17bd 901e 293d af36 38bd
00000140: 7da1 34bb e450 6bbd 316a 7a3d 2dfa 0f3d
00000150: 3280 7bbd 379e 003d b33f 583d b7d4 eb3b
00000160: fb3b 0d3b 06b6 28bd 061a 80bd 4d7a a23d
00000170: b9f5 0e3d cd7a 2e3d 2270 563d a00c fc3b
00000180: 1cea 503c 6e8b 903d e65c b43d 9714 2d3c
00000190: 6548 c7bd 1af4 61bd a2f6 1dbc 11bc d63b
000001a0: 0100 c43d 1773 203d e11a 94bb 2ddc babd
000001b0: 4754 e73b f046 923d 848c b53d ede9 a33c
000001c0: 87d2 9d3c fe8f 7dbd 304e 013d 5bfb d03d
000001d0: 40bd 21bd fd74 433d 91e9 4ebd 0711 093d
000001e0: a7cf 903c 8cfe febd d21c 903d 9315 3a3d
000001f0: 2e9d d7bd 95c7 2f3d afbe fc3c 9d46 86bc
00000200: c918 223d 049d b03d 6f17 c83d bca4 0f3d
00000210: cb74 dfbc fce2 583d 5699 8a3d 8cf1 bfbd
00000220: ac98 7c3d 2bcd a9bd c249 74bd b115 25bd
00000230: 6045 eb3d 0676 0f3d 724c 14bd 9031 5f3d
00000240: 9e88 92bc e025 583d 4d44 513d 661f b73d
00000250: 6685 59bd f666 8abd 016b 8c3d 68b1 8ebd
00000260: 508d a7bd 86b3 acbd 6d0e 56bd 2f55 69bd
00000270: 14d3 2e3c 096a 843d 94ac 293d ed9e 853d
00000280: f9af d5bc cfa6 abbd 83c5 4cbd 4dd2 31bd
00000290: e669 1fbd 0ee5 6f3d 0c11 98bc 0478 cd3b
000002a0: 157f 8fbd 1a12 043d 5883 90bd c2dc c43d
000002b0: 9ab1 d6bd 9ca7 a5bd aade 253d e1d6 10bc
000002c0: c50d d83d ce8a 8d3d 7590 ffbc a5c1 5f3d
000002d0: ca03 c03d d242 af3d dd25 9b3d 1914 e4bc
000002e0: 492a 5f3a dac1 623d 4212 9dbc 63a4 aabd
000002f0: 0ade e83c 173c b8bd 7ff6 203b 5e89 f63c
00000300: 0060 0abc e8a1 d4bc b652 f1bd e6c8 9b3d
00000310: 449f 86bd e813 0cbd 3a35 58bc a3e4 c9bb
00000320: e85b d23d 9fe7 823d 08ef eebc a7aa 0cbd
00000330: 7191 27bd 248e b9bd 65ca e6bd cd25 2b3e
00000340: 49e9 1b3c 94c4 64bd bdb2 84bd 384b 3cbd
00000350: e074 0ebd 0493 86bd 2d6d 58bc 2401 773c
00000360: 5d41 843c 065c b1bc 190d aabb 85b8 6b3c
00000370: 0f01 d93c b5c1 97bd 9a80 18bb 5305 1d3d
00000380: 48f3 873d 23b0 3a3d 34d1 993c 0e50 42bd
00000390: ec3b b1bd fe7b 13bd 1e8e 893d 23b1 333d
000003a0: 1e4e bebd dfa4 e33d 469b 8b3a 6ffb 4fbd
000003b0: 1e7e bdbd fcc7 3cbd 6638 f83b e3a1 9e3d
000003c0: 95ab 833d 1370 1dbd c05e 173d d8a7 6d3c
000003d0: bd33 593d 39e3 02bb 6fec 253d 811d 61bd
000003e0: 71d5 0c3d 8bcc ceba cd64 d53d 9825 cabd
000003f0: d413 a03d 5e50 da3d 1184 77bb fe7c 993c
-0.0125457095 0.0054650228 0.0029810101 -0.01901981 0.037503704 0.05418086 0.072209045 0.039528478
0.00868319 0.045202024 0.024769686 0.061007917 0.03536253 0.036848303 0.06920128 0.02007562
-0.020476513 -0.07351606 0.0023704572 -0.00051874685 -0.0074655954 0.037676387 -0.0022860586 0.05579591
0.032620344 -0.07628565 0.04174859 -0.045076407 -0.052107178 0.0053544184 0.09310567 -0.018662544
0.012739339 0.029391257 0.037050035 -0.050022013 0.03818549 -0.07390574 0.05905558 0.12250954
-0.060585506 -0.008359422 0.040272597 -0.016380465 0.030942556 0.04731894 -0.016339697 0.04063711
-0.01648828 0.012673069 -0.16191657 -0.047229603 0.02662855 -0.025592692 -0.04068893 -0.11467787
0.029982626 0.06656152 -0.019095717 0.067422554 0.111520916 0.044336908 0.08338156 0.08666394
0.008431578 -0.06934519 0.04475021 -0.0070692957 -0.062806554 0.0317768 0.032724284 -0.0027856808
0.06438875 0.020248597 0.013234919 -0.07711978 -0.02041737 -0.036884345 0.041288912 -0.044974025
-0.0027562075 -0.05745019 0.06113643 0.035150696 -0.061401553 0.031400885 0.052795123 0.0071969884
0.0021550644 -0.041189216 -0.062549636 0.07933483 0.034902308 0.04259758 0.052353032 0.0076919347
0.0127511285 0.07057844 0.088067815 0.010563991 -0.09730605 -0.055164434 -0.009641321 0.006553181
0.09570313 0.03917226 -0.004519806 -0.091240264 0.007059607 0.071424365 0.08864692 0.020009005
0.019265426 -0.0619049 0.031568706 0.10204192 -0.039487123 0.04771899 -0.050515715 0.033463504
0.017677141 -0.12450895 0.07036747 0.04543073 -0.105280265 0.042914946 0.030852644 -0.016391093
0.03957442 0.08623698 0.097700946 0.035069212 -0.02727737 0.052950844 0.06767528 -0.09372243
0.061669037 -0.08291086 -0.059640653 -0.04030389 0.114878416 0.035024665 -0.036205716 0.054490626
-0.01788741 0.052770495 0.051090527 0.08941536 -0.053105734 -0.067579195 0.06856347 -0.06967431
-0.0818125 -0.08432679 -0.05225985 -0.056966003 0.010670442 0.06465537 0.04142435 0.06524453
-0.026084887 -0.083814256 -0.04999305 -0.04341345 -0.038919352 0.058568053 -0.018562816 0.0062704105
-0.07006661 0.032243825 -0.07056302 0.09612419 -0.104830936 -0.080886096 0.040495552 -0.008840294
0.10549501 0.069112405 -0.031196812 0.054628033 0.09375723 0.08557667 0.07575581 -0.027841615
0.0008513076 0.055360653 -0.019173745 -0.083321355 0.028426189 -0.08995836 0.0024560986 0.030094799
-0.00844574 -0.02595611 -0.11783354 0.07606678 -0.06573346 -0.03419867 -0.013196284 -0.006161289
0.10271436 0.063918345 -0.029166713 -0.034342434 -0.040910188 -0.09060314 -0.112690724 0.16713639
0.009516069 -0.055851534 -0.06479404 -0.04597017 -0.03477943 -0.0657101 -0.013209623 0.015075956
0.016144449 -0.021650326 -0.0051895496 0.014387255 0.026489763 -0.074099936 -0.0023270012 0.038335156
0.06638199 0.045578133 0.018776514 -0.047439627 -0.08654007 -0.03600692 0.0671656 0.043870103
-0.092922434 0.11115431 0.0010651133 -0.050776895 -0.092525706 -0.046089157 0.0075750826 0.07745721
0.06429211 -0.03843696 0.036955595 0.014505349 0.053027857 -0.001997186 0.040508684 -0.054959778
0.03438324 -0.0015777511 0.10419617 -0.09870452 0.07816282 0.1065986 -0.0037767927 0.018736359

network_body._body_endoder.seq_layers.0.bias f4 [128]
00000000: 9b77 6ebd d521 a63d e5b9 6a3c 0968 0f3e
00000010: b576 debd 18bb f8bd 1c26 07bd 45a8 c53c
00000020: 8301 13bd 82ae 0abe 5cb1 083b c202 05bd
00000030: 5e8a ebbc b043 cbbd a525 0cbd 329b 10bd
00000040: f2c8 18be f8fa 25bd 72bd a03b e5ad 5ebd
00000050: e846 bdbd ba10 ebbd bf47 0ebe cc03 9dbc
00000060: 4257 f03b c794 08bd ae2f 0bbd 660e 1abe
00000070: fa5a 3bbd 6eeb 85bd 9b9e 743d d5aa dfbd
00000080: f534 45bd a354 3d3d f1f8 ab3b 16c2 b3bd
00000090: 686d a9bb ab8f 90bd 4547 cfbc e160 8c3d
000000a0: 75e5 3b3d 4f32 63bd a601 b93d cde4 8fbd
000000b0: bc2a debd 1437 9fbd d0ff 52bd 5752 d9bc
000000c0: 75b2 a2bd 8a78 76ba 73e0 4b3d e697 803c
000000d0: 7a3c dbbd 6ea4 37bd 5da8 2bbe 4556 46bc
000000e0: 1ad1 87bc 88da 7fbd 8702 c13c 6cb1 73bd
000000f0: 8027 dabd 0c24 d3bd d248 903d 51ce 723c
00000100: 20d4 8abd 4633 113e 4964 41bc 63f8 6cbd
00000110: 1e55 14be 4ac1 1cbe ae4a cbbd 6edd cfbc
00000120: bb1f 62bd 5fd1 90bd bc82 b2bc 4dd7 c3bc
00000130: 1d3b babb eebc 16bd 61c6 9fbc 3d58 683c
00000140: f7fe c6bd 1bc4 0cbe ad1a 08bd f2d7 d53d
00000150: 446d d3bd b884 0a3d 0bde 013d 32bf b3bc
00000160: 5857 33bd adca 9cbc 20b6 babd 9ad6 89bd
00000170: 4f35 04bd e358 68bd e24f c93d c2b2 e8bc
00000180: e348 78bd c23d a0bd 221f 683b 859a acbc
00000190: eb06 d6bc 9130 9dba 86fd a23b 6e2d 4b39
000001a0: 69bf c03d 53c4 19bd c142 6c3d 1641 9d3c
000001b0: dc6f 31be 9835 033d 70ec 243c 67f2 823d
000001c0: 8616 373d f9f9 173d b292 e0bd 5d45 7cbc
000001d0: 9c38 82bd 63ec 8bbd 278b 19bd b83c 823d
000001e0: 2604 073c 0ac7 903d 8b6b 1bbe 0d3e 733d
000001f0: a5f2 38bd 219d 16be 2eda db3a 3977 6fbd
-0.058219533 0.08111922 0.014326547 0.1400453 -0.10862485 -0.1214506 -0.03299533 0.024128089
-0.035890114 -0.13543132 0.0020857668 -0.032473333 -0.028752502 -0.0992502 -0.034215588 -0.035304256
-0.14920405 -0.040522546 0.004905396 -0.054365057 -0.0924204 -0.114778 -0.13894556 -0.01916685
0.0073346207 -0.03334501 -0.033981018 -0.15044555 -0.04574106 -0.06539045 0.05972157 -0.109212555
-0.048146207 0.046223294 0.005248182 -0.08777253 -0.005170513 -0.070586525 -0.025302539 0.06854416
0.045873124 -0.0554679 0.090335175 -0.07026062 -0.10847995 -0.07774177 -0.051513493 -0.02652852
-0.07944194 -0.0009402117 0.0497746 0.01569743 -0.10704894 -0.044834547 -0.16763444 -0.012105529
-0.0165792 -0.062464267 0.023560775 -0.059495375 -0.10652065 -0.1030961 0.07045139 0.0148196975
-0.06778741 0.14179716 -0.011803695 -0.057854068 -0.14485595 -0.15308109 -0.099263534 -0.02537414
-0.05520604 -0.07071184 -0.021790855 -0.023906374 -0.0056833164 -0.03680127 -0.019503774 0.014181194
-0.097165994 -0.13746683 -0.033228565 0.10441579 -0.10323575 0.033817977 0.031705897 -0.021941755
-0.04378447 -0.019139612 -0.09116769 -0.06730385 -0.0322774 -0.056725394 0.098296896 -0.02840555
-0.060616385 -0.07824279 0.0035418947 -0.021069774 -0.026126346 -0.0011992623 0.00497407 0.00019376513
0.094115086 -0.037540745 0.05768085 0.019196074 -0.17327827 0.032033533 0.010066137 0.06393891
0.044699214 0.037103627 -0.1096548 -0.015397397 -0.06358454 -0.068321966 -0.03748622 0.063592374
0.008240735 0.07069214 -0.15177743 0.059385348 -0.04515328 -0.14708377 0.0016773397 -0.05846331

network_body._body_endoder.seq_layers.0.weight f4 [128, 8]
00000000: 86bd 8dbe 69ac af3d 041a 973e 38e1 963e
00000010: fa27 90bd 0c5c b13e d965 513e 9605 17bf
00000020: 32d2 293e 25f8 a5be cd6b 383f 9fe2 9abe
00000030: ddf1 e03c 8dee a4be e34e 383f bab7 48be
00000040: a470 d33c 6740 86bd 7292 3c3d 6997 e8be
00000050: bb76 2cbd aa5d 343c 221c 8b3e a3bf 253e
00000060: c063 d33e e33d 04bf a960 23bf f79e ffbe
00000070: b833 ce3e 4c89 93be 6ea1 2d3e ab30 633e
00000080: 07d6 97bb 177d f93e 0cfb 67bd 731c 823e
00000090: 5166 92be 143d 9ebd 4c82 babe 7783 6a3e
000000a0: 1337 a33e aeef 033f 6a3d 3dbf 8881 a2be
000000b0: fd52 113d 9172 1ebf 9afd 0ebe fcdb 943e
000000c0: 9287 773e fa1e eb3e 5bea eebe 6a12 7b3e
000000d0: 601e 823e 4294 9abe c165 26be f32b 8ebd
000000e0: 56cd 82be da5e 133f 41c2 5abe a91c 8a3e
000000f0: 9ab9 38bf 0074 8abe 7070 0fbe c195 27be
00000100: de60 8c3e d31c 013f bb30 1fbe 46c8 8ebe
00000110: b1a3 cebe 2bb0 9b3e 570f 22be f26b e8be
00000120: 6140 733e a884 c5bd f950 a2bc 846e 253e
00000130: 0bc5 fd3e ab50 e4be 301e e93e ad08 893e
00000140: b00d 6abf 2d42 553e 10c3 973e 047f d03e
00000150: 5ed0 003d 18e1 bfbe 9977 a73e 82da 0d3f
00000160: 0f60 c4be 2d31 0bbe 84d1 4dbe ccb8 0d3f
00000170: a2a3 e6bd 6f48 c5bc c738 c13e 25ba a2be
00000180: d584 f6bd ab7d 00bf 0ad9 e73e e3b9 f43d
00000190: d4a8 f1bc 9b1a a03e 33f8 1cbf 39e9 3a3f
000001a0: c476 f1be 62e1 833d e203 61be 072c 003d
000001b0: 630e a23e d2ab 4e3e 9799 29be 5203 b8be
000001c0: 8a15 c3be db60 8fbe f485 043e d74e 253d
000001d0: ddb7 723e 6e7f 92be 26de 023e 128e 333e
000001e0: cfde 4d3d 03cf c4be 3aa9 283f f3bf babe
000001f0: 735f a93e beae 19be 6801 553e 428d 01be
00000200: cbfe 4bbe 01f5 183c 5965 45be 33f5 a93d
00000210: 4935 313f d353 733f eca8 01bf b42e d23e
00000220: a483 a33f 5cb5 883e afcc 88be aa3e 68bd
00000230: ca40 0bbf d0ec be3e d941 acbc 2706 9f3c
00000240: 586b bdbd 6291 02be a3d8 58bf f34f a2be
00000250: 034b cc3e 2d92 6fbd 7b91 e0bd 318a 03bf
00000260: 4453 2cbe 8beb 88be 02b8 03bf 8787 9a3e
00000270: ad5c 2e3e c516 c33d a150 63be fd0f 633e
00000280: cdfa b6be d78b aa3e 76a7 1e3f a5e9 233e
00000290: 2564 043f da05 0ebf 9405 7cbc fcd5 7dbe
000002a0: e2dd eabe af1a 0bbe a48a e8be 46d9 093f
000002b0: 7190 213d 7ce0 7a3d 837f 0c3e 0223 82bd
000002c0: 7182 2cbe 1732 afbd ad76 143d ecf1 9b3e
000002d0: 5bb6 963e 5de2 143f 3427 8e3e 2727 a6bd
000002e0: 3439 5d3e 59dc 2d3e 0fdd 5fbe 30d4 f03d
000002f0: e093 18be c27e ff3e 6b6c adbd e0bc 70be
00000300: 20aa 1fbe 6f75 ecbd 9e16 85be a29e ff3b
00000310: 4f00 05bf 4090 8cbe 0a1b 0e3f 164f 1e3f
00000320: 47a5 a9bd 609d 883e f0a6 593e f909 18bf
00000330: a898 de3e 1b20 aebe 279e 983e 9ec3 263f
00000340: 1f82 e1be edca 393d 6472 85be a45a 123f
00000350: f23e f73d ea45 86bd 11e1 503e 2134 b0be
00000360: baef 92be 5b7a 06be eb04 653e 8065 713d
00000370: 4d38 92bc 7531 43bf d768 b7bd 8e89 74be
00000380: 213e a23d 4ba5 8a3e ea7e 63be 2852 a0be
00000390: a750 c1bd 4315 0d3e 82e2 e9bd bbe9 b0be
000003a0: 1d17 f53e 9775 f33d 1e53 f13c a794 4fbe
000003b0: d4ed e2bd eef6 003f 5f75 a1bd 2110 80bf
000003c0: 168a 493e 28e8 6dbe 4c96 f0be 5652 68bd
000003d0: 48af 2c3f 867d fa3d 44a5 d3be 6f97 9abe
000003e0: 87df 8ebd 7193 0e3e e2f2 bdbe f236 4dbe
000003f0: f710 ce3e f249 2f3d 2d75 ce3b c417 223f
-0.27683657 0.085778065 0.29512036 0.29468703 -0.07038875 0.3464054 0.20449008 -0.589929
0.1658409 -0.32415882 0.7203949 -0.30251023 0.02745908 -0.3221325 0.7199537 -0.19601336
0.025810547 -0.065552525 0.0460381 -0.45428017 -0.042105418 0.011008659 0.271699 0.16186385
0.4128704 -0.5165693 -0.63819367 -0.49925968 0.40273833 -0.28815687 0.16956112 0.22186534
-0.0046336683 0.48728248 -0.0566359 0.2541233 -0.28593686 -0.077264935 -0.36427534 0.22901712
0.31877956 0.515376 -0.73921835 -0.3173945 0.035479534 -0.61893564 -0.13963929 0.29074085
0.2417281 0.4592207 -0.46663174 0.24518743 0.254138 -0.30191237 -0.16249754 -0.069419764
-0.25547284 0.57566607 -0.21363164 0.2697499 -0.72158206 -0.27041626 -0.14007735 -0.1636572
0.27417654 0.5043461 -0.15545933 -0.27887172 -0.40359262 0.30407843 -0.15826164 -0.45394856
0.23755027 -0.09644443 -0.019814001 0.1615544 0.49564394 -0.44592795 0.45530844 0.26764432
-0.91427135 0.20826025 0.29641008 0.40721905 0.031448714 -0.3747642 0.32708433 0.5541154
-0.38354537 -0.13592978 -0.20099455 0.553601 -0.11261679 -0.02408239 0.3773863 -0.31782642
-0.120370544 -0.50191754 0.45282775 0.119495176 -0.029499449 0.31270298 -0.6131622 0.7301212
-0.47160923 0.06439473 -0.21974137 0.031291988 0.316516 0.20182732 -0.16562496 -0.35940033
-0.3810237 -0.28003582 0.12941724 0.04035839 0.23702951 -0.28612846 0.12780055 0.17534664
0.050261315 -0.38439187 0.6588322 -0.3647457 0.33080634 -0.15008065 0.20801318 -0.12651542
-0.19921415 0.009335757 -0.19276942 0.08298721 0.6922193 0.9504978 -0.5064838 0.41051257
1.2774549 0.26700866 -0.2671866 -0.056700386 -0.54395735 0.3729005 -0.021027492 0.019412113
-0.0924899 -0.12750772 -0.8470556 -0.3170162 0.3990098 -0.058489013 -0.10965248 -0.5138274
-0.16828638 -0.26742205 -0.5145265 0.30181524 0.1702754 0.09525827 -0.22198726 0.22174068
-0.3573822 0.33309814 0.61974275 0.16007097 0.5171531 -0.5547768 -0.015382189 -0.2478866
-0.45872408 -0.13584398 -0.45418274 0.5384716 0.03944439 0.06124924 0.13720517 -0.063543335
-0.16846634 -0.08554476 0.03624599 0.3045801 0.29436 0.581579 0.27764285 -0.081129365
0.21603853 0.16978587 -0.21861671 0.117592216 -0.1490016 0.49901396 -0.08467945 -0.2350955
-0.15592241 -0.11545836 -0.25993818 0.007800893 -0.51953596 -0.27453804 0.5551001 0.61839426
-0.08283477 0.26682568 0.21255088 -0.5939022 0.43475842 -0.3400887 0.2980816 0.6514224
-0.44044587 0.04535954 -0.26063836 0.57169557 0.12072553 -0.06556304 0.20398356 -0.3441477
-0.28698522 -0.13132612 0.22365157 0.05893469 -0.017849112 -0.7624734 -0.089555435 -0.23880598
0.079220064 0.27079234 -0.22216383 -0.3131268 -0.09439211 0.13777642 -0.11420156 -0.34553322
0.47869197 0.11887663 0.029458579 -0.2027155 -0.11080518 0.50376785 -0.07883715 -1.0004922
0.19681582 -0.23233092 -0.46989667 -0.056719147 0.6745496 0.12230973 -0.41337025 -0.3019366
-0.06976228 0.13923432 -0.37099367 -0.20040491 0.40247318 0.04279513 0.0063005895 0.63317513

network_body._body_endoder.seq_layers.2.bias f4 [128]
00000000: 094a 1b3c a460 103d 5052 143d c25e bdbc
00000010: 312b 823d b5a8 1c3d 4592 8a3b eb49 043e
00000020: 59f4 dcbc 1812 663d 2ed4 8d3d 8e7e a53d
00000030: c68f 733d 3e16 333d b701 c53d 0cae b4bb
00000040: be72 86bc 5661 be3b a3d3 d33c f58a c23c
00000050: 9891 debc 1a42 973d a188 a9bc 1844 c73d
00000060: 03d0 af3d b9ac 033d 1dac cc3c e1e6 70bd
00000070: 19d8 5dbc 538e ca3c 7305 6d3d 10ab 4c3c
00000080: 5e6e 97bc e527 b53d 6d61 333b 8872 51bd
00000090: ddb5 2f3d b838 2d3d a65a 973d d56a 193e
000000a0: 6bcf ae3c 48f6 97bc 9232 d43d 0983 2c3d
000000b0: 22a4 003e b001 b63d a91c d33b 1e3c 073d
000000c0: bbeb 5839 6275 35bc 37d1 d339 2263 6e3c
000000d0: a1d6 543b ea85 fbbc 9215 a03c e110 6e3c
000000e0: dabf 963a 4358 96bc d470 09bd 4184 cf3c
000000f0: d457 223e 591a d83d 9f4a db3d d3da 8a3d
00000100: 596b 04bd e3ba 383c 8575 f43d db94 12bd
00000110: 0c50 03ba 48b9 623d a8a5 3e3d c83b 30bd
00000120: 28ce 5f3d 2e70 59bb a9a5 0f3d 2875 73bd
00000130: 9806 62bc 8c6a 903d 5ea6 cd3d 0d2a d73c
00000140: b166 23bd 53da 31bd 2a0b aa3d 1446 843d
00000150: 9553 bbbc e937 ca3c 9c18 043d 7648 28bd
00000160: bb11 0ebd 436f 28bd c1bd 5dbd 7c61 713d
00000170: a53d 973c 6902 0fbd cc3a 1a3d 83b1 673c
00000180: 5c97 80bd aa8e 813d 1d99 c33d e9d9 d43a
00000190: 37b2 2a3d 99bb ddbc 4484 d73c 05ab 0cbd
000001a0: 8c0f 673d a4c3 6836 4af0 bcbb 51a7 5b3d
000001b0: 2795 853d 64ee 8b3d 38cc 753d e867 fa3c
000001c0: 9312 32bd 9c39 14bd 3b00 213a a6bd ce3d
000001d0: c60c 7e3c eed7 623d a062 993c afc0 e23c
000001e0: 76c5 d33c be8c 6e3c 0ca4 533d cec5 5e3d
000001f0: 9db1 e6bc bf12 9e3d e409 d7ba 37fc 43bd
0.009478101 0.035248414 0.03621131 -0.023116473 0.06355894 0.03824683 0.0042288625 0.12918822
-0.026971983 0.0561696 0.06925236 0.08080779 0.059463285 0.043722384 0.09619468 -0.005513912
-0.016412135 0.005809943 0.025857752 0.0237479 -0.027169034 0.07385655 -0.020695033 0.09729785
0.08584597 0.032147143 0.024984414 -0.058813933 -0.013540291 0.024726069 0.057866525 0.012491956
-0.018485244 0.088455 0.0027371303 -0.051134616 0.042898048 0.04229042 0.07390337 0.1498216
0.021339139 -0.018550053 0.10361208 0.042117152 0.12562612 0.088870406 0.0064426255 0.033016317
0.00020687182 -0.0110753495 0.00040400933 0.014550002 0.0032476562 -0.030703504 0.019541536 0.014530391
0.0011501268 -0.018352633 -0.033554867 0.025331618 0.15853816 0.105519004 0.10707592 0.06780019
-0.032328937 0.011275026 0.119364776 -0.03578649 -0.00050091813 0.05535248 0.0465447 -0.04302576
0.054639965 -0.0033178437 0.035070095 -0.0594379 -0.013795517 0.07051572 0.10041498 0.026265169
-0.039892856 -0.0434211 0.083029106 0.06458679 -0.022867003 0.024684863 0.03225003 -0.04108473
-0.034684878 -0.041121732 -0.05413604 0.05893086 0.018462012 -0.034914408 0.03765373 0.014141443
-0.062788695 0.06326039 0.095506884 0.0016239259 0.041673865 -0.027066993 0.026308186 -0.034342784
0.05641131 3.4684572e-06 -0.0057659494 0.053626362 0.06522589 0.06832579 0.06000921 0.030567124
-0.043474745 -0.036187753 0.0006141697 0.10094766 0.015505975 0.055381708 0.018723786 0.02767977
0.025850993 0.014559923 0.05167012 0.05438786 -0.028160864 0.07718419 -0.0016406146 -0.047847953

network_body._body_endoder.seq_layers.2.weight f4 [128, 128]
00000000: 2079 b8bc 8b4e 313c d9aa bf3d c392 0dbe
00000010: c3df b2bd 5779 88bd cf81 e8bd 8597 2e3d
00000020: 2b8a aa3d f646 5cbe c2db cd3d a7d6 08be
00000030: 3006 12be abce 613d f552 543c 239f 42bd
00000040: cd70 8f3d dbf7 493d ba9d 3dbc 95e0 a9bd
00000050: 07f3 543d dedd ae3d dd53 0dbe 7bcb a23d
00000060: 4343 02bd 79bc b2bc b690 193e 6301 66bd
00000070: ca93 aebd a781 70bd 5840 57be 6759 d13d
00000080: 3c8b 433d 9415 abbd 3151 9ebd 1f16 073e
00000090: 62e7 ecbd ecb1 1dbe 2012 b53a a9da 213e
000000a0: 1f9e 5f3c b2fd fe3d 1359 2ebe 8e06 8fbd
000000b0: 4bb7 153a ed15 9ab9 1835 9c3d bddb da3c
000000c0: a309 98bd 14b5 68bc 328e 8dbd 6132 e4bd
000000d0: 0246 04bd 3a07 be3c 7407 073d 3d2b b6be
000000e0: 8eb3 b5bd 77ba cbbd 48e9 24be 74ee ca3d
000000f0: 99df 34bd 488c f9bc 2e29 d8bd 83d1 cb3d
00000100: 92a7 0dbe dcf8 f5bd 8912 743d c998 cdbc
00000110: 5b0c 403e 2c50 85bd 79fd a0bd b7ab b6bc
00000120: ca80 433c 73c6 4e3b 78b8 e1bd 6d45 093e
00000130: f779 66bd 6d61 863d 11b2 5ebd d936 b2bd
00000140: 4ae1 68be cfae 3fbe a9d3 a1bd 2d50 143d
00000150: 7101 2e3e 8a40 203d 216a 02be 9f73 b63d
00000160: c10c a5bc 219a 123c 87f9 fb3c bef9 75bd
00000170: 6706 373d 2c0a a8bd ce15 dcbd eb34 74be
00000180: 26ba 8cbd 9d8d 183c a7f5 5ebd 9e42 cb3d
00000190: 40da 983d c0d7 3abd 3a3d 013e 05f3 00be
000001a0: ef28 5abd c52d 3dbe 4367 93bd db02 053e
000001b0: a4df 133e 0eff d43d 727f 1f3e 710b a8bd
000001c0: d5fc e9bd 0fb2 90bd 96f6 3f3c cb2e af3d
000001d0: 7d40 c8bd 5329 58bd 048a fb3d 3fef a4bd
000001e0: f2f6 243d 570c 243b 791f e6bd da6f 583e
000001f0: 797c 5b3d da6f e9bc 72fb e6bd ff80 6f3d
00000200: c902 093e 3994 cfbd b7c2 88bd 6445 c4bd
00000210: f427 8c3c 8461 edbd ddc2 793e bb92 9d3e
00000220: 363c 123e 6e40 90bd 0e5e c33d c11f 89bc
00000230: 15b3 5fbd 8387 853c 2fe6 36bd 1f4b efbd
00000240: fa0e c23d 0400 6abd 5d42 963d b18d 91bc
00000250: ce2a 2fbb 171e b2bb cc94 643d 33d4 e4bd
00000260: cfed 0b3d 805d 5a3c 3197 d73c 20e4 77bd
00000270: 612c 5f3c a313 05bc 51c4 0e3d 253b 1e3d
00000280: 1308 dc3d 37d5 85bd d2bb 923c fded 3e3d
00000290: 3bcd 75be 2c8b 10bd 737c 6fbd 617e c5bc
000002a0: 2553 7bbe 8da5 24bd e435 d13d c268 11bd
000002b0: 15fd 58be 36c0 acbd e8a1 033d bee8 63ba
000002c0: 6b50 6dbc 02fb 4d3d 3ade acbb e50b cdbd
000002d0: 03e9 86bd ede0 cd3d 332f a3bd 5c5f 29be
000002e0: 2166 413e 31e1 5f3d d8be e9bd 34ee 893d
000002f0: 73e4 3e3d f98a 32be b4ec 3abd f3b0 853c
00000300: 7d17 85bd 591f 6cbc 530c 053e 20bb 443d
00000310: e29c 1bbc 8550 533d 914a fa3c a7a2 d93d
00000320: d161 b3bb d5aa 96be 6780 8b3d 16eb 033d
00000330: 504b c33d 2be9 c9bd fd3f b8bd b271 38be
00000340: 0c3f 073e 0e0b 183c 490b 21bd e5e2 0abe
00000350: 4ad2 433c f775 02be 2065 7ebd 6470 bcbd
00000360: 0017 c03d 799f 2dbe 077d a93d 4b39 0e3d
00000370: 9355 7f3c 64b8 99be a22e 43bc 1a35 efbd
00000380: ff12 13be 269d 1ebd dec2 333d 594b 3bbe
00000390: ca25 1ebe d3d3 823d 21d2 6a3d 692d a83c
000003a0: 492e 82bd b2c2 8ebc d511 353d 2d49 9fbe
000003b0: cab0 7dbc 8088 763e 03a8 b0bd 2d04 21bd
000003c0: fb78 4f3d 735a f93c fdeb 97bd 6b53 36bc
000003d0: 69a5 adbd 40ce 173d fc93 15be 62aa 173d
000003e0: 0111 eabd 5bfc 533d e396 19be 8efd 58bd
000003f0: 8d4e fe3d cbbd 9c3d d6d5 b43b 2781 2b3d
-0.022518694 0.010821949 0.093587585 -0.13825516 -0.087340854 -0.06663769 -0.11352884 0.04262497
0.08327135 -0.21511444 0.10051681 -0.13363133 -0.14260173 0.055128735 0.012959232 -0.047515046
0.07003937 0.04930864 -0.0115732495 -0.08294789 0.05198958 0.085384116 -0.13801523 0.07948967
-0.031802427 -0.021818386 0.14996609 -0.056153666 -0.08524282 -0.058717396 -0.21020639 0.1022213
0.047740206 -0.08353725 -0.0773033 0.13192032 -0.1156757 -0.15399903 0.0013814606 0.15806068
0.013648539 0.12450732 -0.17026167 -0.06983672 0.00057112117 -0.00029389505 0.07627314 0.026716108
-0.07423713 -0.014203329 -0.06911887 -0.111424215 -0.032293327 0.023196805 0.032966092 -0.35579863
-0.08872138 -0.09947675 -0.16104615 0.099087626 -0.04415855 -0.0304624 -0.105547294 0.099520706
-0.13833454 -0.12010357 0.05958799 -0.025097268 0.18754713 -0.06509432 -0.07860846 -0.022298677
0.011932561 0.003155139 -0.11021513 0.1340539 -0.05626866 0.06561551 -0.054369036 -0.087018676
-0.22742191 -0.18719028 -0.07901699 0.036209274 0.16992737 0.03912405 -0.12735797 0.08908772
-0.020147683 0.00894788 0.030758632 -0.060052626 0.04468384 -0.08205065 -0.107463464 -0.23848312
-0.068714425 0.009311107 -0.05443349 0.099248156 0.07463503 -0.04561591 0.12621012 -0.12592705
-0.053261694 -0.18474491 -0.0719743 0.1298937 0.14440781 0.1040021 0.1557596 -0.08205307
-0.11425177 -0.07065212 0.0117165055 0.08553847 -0.09777925 -0.052773785 0.12282184 -0.08053445
0.040274568 0.002503177 -0.11236472 0.21136418 0.053585503 -0.028495718 -0.11278428 0.05847263
0.13379969 -0.10135693 -0.06677764 -0.09583548 0.017108895 -0.11590865 0.2439074 0.3077601
0.14280781 -0.07043539 0.09539424 -0.016738774 -0.054614145 0.016299969 -0.044653114 -0.1168425
0.09475513 -0.05712892 0.073368765 -0.017767759 -0.0026728394 -0.005435716 0.055805966 -0.11173286
0.03416234 0.013327956 0.02631721 -0.06052029 0.013621421 -0.008122358 0.03485519 0.038630623
0.107437275 -0.06534808 0.017911825 0.046613682 -0.2400407 -0.035288975 -0.058468293 -0.024108114
-0.24543436 -0.040196944 0.10215357 -0.035500295 -0.21190293 -0.08435099 0.032136828 -0.0008694044
-0.014484505 0.050288208 -0.005275515 -0.10012034 -0.06587412 0.10052667 -0.07967987 -0.16540283
0.18886615 0.05465812 -0.11413354 0.06734887 0.046604585 -0.17435826 -0.045635894 0.016319728
-0.06498621 -0.014411771 0.12992983 0.04803002 -0.009497853 0.05159046 0.030553134 0.106267266
-0.005474307 -0.2942721 0.068116 0.032206617 0.09535849 -0.098589264 -0.0899658 -0.18012121
0.13207644 0.009279979 -0.039317403 -0.13563116 0.011951992 -0.12740313 -0.06210816 -0.09201124
0.09379387 -0.16955365 0.082758 0.034722608 0.015584367 -0.3002349 -0.011912974 -0.1168005
-0.14362715 -0.038724087 0.04388701 -0.18290462 -0.15444103 0.063880585 0.0573293 0.020529466
-0.063564844 -0.017426822 0.04420646 -0.31110516 -0.015484044 0.24075508 -0.08625796 -0.039310623
0.050652485 0.030438637 -0.07418058 -0.011128287 -0.08478815 0.03706193 -0.14607233 0.037027724
-0.114290245 0.051754337 -0.14998965 -0.052976184 0.12417326 0.07653388 0.0055186553 0.041871216
