Assets/models/RollerBall.onnx (onnx, 73663 bytes, 7 tensors)

action_model._continuous_distribution.log_sigma f4 [1, 2]
00000000: e9c6 dbbd f87b 29be
-0.107312985 -0.16551197

action_model._continuous_distribution.mu.bias f4 [2]
00000000: 6954 0abb bc66 0b3c
-0.0021107441 0.0085083805

action_model._continuous_distribution.mu.weight f4 [2, 128]
00000000: 3a44 b23d 6b98 f73d 3462 aa3c 3b52 c6bc
00000010: 08b7 3b3c 5c08 09be 2953 55bb b445 43bd
00000020: 736e 813d d993 58bd e267 093d c935 543d
00000030: fee5 043d f27b 98bc e37a 1c3d 52e7 0ebd
00000040: f710 743b 75ae cf3d 8d13 24bd a48d aabc
00000050: ce27 b3b9 f504 103d 4802 b3b8 2c65 cb3c
00000060: 736c b8bd 03ae 9c3c 2ef0 373d 5923 5a3c
00000070: 7076 bdbc 1643 403a 1390 b23d 271c ef3b
00000080: b2a9 793d 8783 b4bc 43fb 42bd cea6 c83c
00000090: e719 5f3d fe9a 81ba d95e 40bd b263 6b3d
000000a0: a6f9 ee3c fc7c 983d a61f 19bc d44e 9bbc
000000b0: 7869 8e3c 998c 8b3c fdd0 543d 91f8 6e3c
000000c0: fd88 63bd decf 8bbc 6dcf 1a3d 4899 6c3b
000000d0: c2a3 823c f236 c4bc 3390 23bb 48cb e9bb
000000e0: 5ee2 cbbd 6743 97bc 00f1 f93c ad13 43bc
000000f0: 6615 58bd 246b 133d bd09 c6bd 82ad 7bbd
00000100: f286 7a3b bb60 02bd 713a b83c a27f 0c3d
00000110: 013d b4bd ef33 98bd 709a bebc 1ade b6bd
00000120: ac12 fe3c 4939 193c 4857 2bbd 6815 06bd
00000130: e199 973d 23ab 753d 6d93 7cbd 5869 04bd
00000140: 5a58 8fbd f052 913c b8ca 69bd 1c48 b1bc
00000150: cd96 cbbc b32f 71bd 321e 18bd 5817 b2bc
00000160: 5fa2 72bd e89a 3e3c 1eb1 e4bd 92fd e33b
00000170: 6faa 493d 6a83 433c 36a5 a23c bd00 2cbc
00000180: 957a 3bbc fd9c bb3d 41de 533c d03e 4b3d
00000190: c956 fdbc 4bf8 143d d17e 75ba dd8b 3ebd
000001a0: 3d09 723d cbb3 59bc a1c9 24bd 532a 9a3d
000001b0: 9e22 a13c be51 8e3b bff9 853d 9e50 e03b
000001c0: 5a2d fa3c 241b c5bc 6cf4 86bd e46c 9dbd
000001d0: e59e 513b 9867 9abd 6997 873a 3214 4a3d
000001e0: 7d2d 75bc 697b 4fbd 2d88 9bbc 133c 44bd
000001f0: 1d9f 0a3c 1af2 33bd 30ae 9f3c 1271 44bd
00000200: b05e 53bd 4ebc 8abc 50bd 173d f0f1 0c3d
00000210: fe0e 30bd 2b31 46bb 4bd5 893d 5505 28bd
00000220: 8dba 09bc 3449 adbd 9ca5 c6ba 8de9 b6ba
00000230: 5937 5dbd cd84 fb3c 6d84 863d a49c e53b
00000240: 4c62 47bd 4b3a 193d 6f51 f83a 4bb9 b53d
00000250: 852d 3a3c c873 023d 57b4 113c 026f 57bc
00000260: c5d6 0e3d 80cf dbbc 542b 96bc 37b6 bebc
00000270: ed68 bd3c 9ca0 a9bd ba31 b7bd 5827 dd3d
00000280: f0cd a9bc 1622 663d 0937 cb3d 329f 66bc
00000290: ba8e 173d 3afe 0c3c f111 103d 7d94 f6bc
000002a0: c6fb 8abd 11a1 093d f9b4 0dbd f3ac 8cba
000002b0: 97a1 983c 81a3 ec3d 78b1 d73c 30a1 4f3c
000002c0: 80ae 70bc 6e83 56bd 7c56 27bd cd97 45bd
000002d0: df36 d1bd b0d4 b4bd 92d8 653d 2938 7a3b
000002e0: cc7b 8fbd 794b c0bd 37a7 88bd a4c8 afbc
000002f0: 24c6 1fbd 7cfa a63d 58b6 93ba 6c9e c9bc
00000300: cc20 e03b 45d8 1c3d 7e97 633c aaa6 cb3d
00000310: ba14 0ebd dfb0 46bc c3ee 90bc b0bf 81bb
00000320: f50e 9d3c c5f9 a73d 78e7 ad3b 82f5 31bd
00000330: d6c4 e5bc 7288 163d e340 bfbd 39df eebc
00000340: 6a7c 43bc 2323 6cbd 17d5 f73c d826 033e
00000350: 2c3d 7ebd fe48 c73c 4331 253d 2c75 53bd
00000360: 9882 b53c d932 7d3d 6fb1 b53d 27c4 fe3b
00000370: cfa4 a5bc 701c 193d 0870 a3bd b26a 59bd
00000380: 6f6c ef3c 13f9 b33d 8013 89bd c291 d3bd
00000390: 3799 9ebc 4bcb eb3c 1ab2 fa3c 3ec8 30bc
000003a0: b58b e93c 75cc fabd 1647 843c 91a0 d9bc
000003b0: a614 f33c de57 64bc 39be 08bb cf9a d43d
000003c0: 27ca 11bd 9920 b5b8 a8c6 e8bc 6ac9 1fbb
000003d0: 03e8 83bb 31e3 4a3d 846a 203d cc5d 663d
000003e0: d494 4a3d 6882 c0bc af29 943c 12f8 afbd
000003f0: e24d ca3b 4990 9c3d 956d 4f3c 3d70 11bd
0.087044194 0.12089618 0.02079878 -0.024209132 0.011457212 -0.13382095 -0.0032550788 -0.047673896
0.06319895 -0.052875374 0.033546336 0.051809106 0.0324459 -0.01861379 0.03820313 -0.034888573
0.0037241557 0.10140697 -0.040057708 -0.020819493 -0.00034171197 0.035160977 -8.53581e-05 0.024828516
-0.0900506 0.019125944 0.044906788 0.013314092 -0.023127764 0.00073342153 0.08718886 0.007297057
0.06095285 -0.022035373 -0.047602903 0.024493601 0.05446806 -0.000988811 -0.046965454 0.057468124
0.029171776 0.07445714 -0.0093459245 -0.018958487 0.017384276 0.017034816 0.05195712 0.01458563
-0.055550564 -0.017066892 0.037795473 0.0036102105 0.015947226 -0.023951981 -0.0024957776 -0.0071348287
-0.099552855 -0.018464757 0.030510426 -0.011906547 -0.052754782 0.03599085 -0.09669826 -0.061444767
0.0038227406 -0.03183053 0.022488805 0.034301408 -0.08800698 -0.074317805 -0.023267 -0.08929081
0.031014763 0.009352037 -0.041831285 -0.03273526 0.07402397 0.05997766 -0.061664034 -0.032327026
-0.069992736 0.017739743 -0.057078093 -0.02164083 -0.02485218 -0.05888338 -0.03713817 -0.021739647
-0.05923688 0.011633612 -0.11166595 0.006957718 0.049234804 0.011933187 0.01985417 -0.010498223
-0.0114428 0.091608025 0.012931407 0.04962045 -0.030925171 0.036369603 -0.00093649054 -0.046520103
0.05909084 -0.013287495 -0.04023135 0.07527604 0.019669827 0.0043432405 0.06541776 0.006845548
0.030539203 -0.024060793 -0.065895885 -0.07686785 0.0031985578 -0.0753929 0.0010344806 0.049335666
-0.0149644585 -0.050654802 -0.018985832 -0.047908854 0.008460787 -0.043932058 0.019492239 -0.047959395
-0.051603973 -0.016935494 0.037045777 0.034410417 -0.042983048 -0.0030241709 0.067301355 -0.04102071
-0.008406294 -0.08461228 -0.0015155557 -0.0013955102 -0.05400786 0.030702973 0.06568227 0.0070071984
-0.048677728 0.037409108 0.0018945168 0.088732325 0.011363392 0.0318487 0.008893094 -0.013149025
0.03487279 -0.026832342 -0.018331207 -0.023280246 0.023121322 -0.08282587 -0.089450315 0.1079852
-0.020728081 0.05618485 0.099226065 -0.014076041 0.03700135 0.008605534 0.03517336 -0.030100102
-0.06786303 0.03360087 -0.034596417 -0.0010732695 0.01863174 0.115546234 0.02632974 0.012672707
-0.014690042 -0.052371435 -0.040853962 -0.04824047 -0.10215544 -0.088296294 0.05611474 0.0038180447
-0.07006034 -0.09389395 -0.06672519 -0.021457978 -0.03900732 0.08153245 -0.0011269553 -0.024611674
0.006839847 0.03829219 0.013891099 0.09943898 -0.034687735 -0.01212713 -0.017691975 -0.0039596185
0.019172171 0.08201937 0.0053071342 -0.043447025 -0.02804796 0.03675122 -0.09338548 -0.029159175
-0.011931518 -0.057650696 0.030252976 0.12807786 -0.062070057 0.024326798 0.040330183 -0.051625416
0.022156999 0.06181607 0.088717334 0.007774848 -0.020220188 0.037380636 -0.07980353 -0.05308027
0.02922651 0.087877415 -0.066931725 -0.103305355 -0.019360168 0.028783461 0.030602504 -0.010789929
0.028509 -0.12246028 0.016147178 -0.026565822 0.029672932 -0.013936965 -0.0020865335 0.1038109
-0.035593178 -8.636824e-05 -0.02841504 -0.0024381527 -0.0040254607 0.049533073 0.03916408 0.056241795
0.04945834 -0.023499683 0.018086283 -0.085922375 0.006173835 0.07644708 0.012660404 -0.03550743

network_body._body_endoder.seq_layers.0.bias f4 [128]
00000000: 4ef1 b7bd 3c68 91bd e19a f63b c7ad cb3d
00000010: c2c7 8c3c ab84 28bd e5ed e7bc 6d6a b93d
00000020: 4cd2 7c3c 0540 1dbe 97dd d8bc 1e2f 903c
00000030: 4743 3b3b eced 06bd c7b8 47bd 835f 30be
00000040: c04c 863c 972f 20bd 13bb a0bd 320a 6a3d
00000050: 28d2 193d c8ed b23b 2f0a f5b9 c9ba 64bd
00000060: 9533 50bd 61a7 36bc 5ac4 8cbd f8f0 183d
00000070: e08d a6bd e895 f3bc d766 033d 295d 173c
00000080: b69a 413d 86a9 40bd 1601 a8bd e863 93bd
00000090: ed13 8cbd 6b63 25be f6de ef3c 7967 7ebc
000000a0: 954a 7c3d e99e 83bd a9fa d5bd fc1a 8bbd
000000b0: 0836 043b 23a6 d6bd 8494 06be fb9f eb3c
000000c0: 8786 133d c584 753d 4bd3 b3bb cf0c 57bd
000000d0: 5071 ca3c 43c1 71bd e567 e5bb 482a b7bd
000000e0: 6873 4ebd 0c8d 0d3d 4891 e0bd 844f 79bd
000000f0: 87e7 ed3b ffc7 37be 97de 053d cc90 8f3c
00000100: 5fc2 9b3d 8e7f 09be 855c 52bd 4cde 6a3d
00000110: a47d fabd 32c1 1abc aad6 03bd 245d ab3c
00000120: bb54 ca3c 6860 f73c 8f50 d1bc 7867 7c3d
00000130: 429a 92bc 7eda 293d c7ae abbc df77 18bd
00000140: f159 28bd 38df 5bbd ddf4 f8bc 8520 f53c
00000150: 9bc2 babd fa09 e8bc cdca 13bb 9b6c 313c
00000160: de99 9cbd 2c6b bcbd bcfd debd 3e8b 463c
00000170: de56 233c a3dc f43d 2638 4bba 0ba2 eabd
00000180: ca06 aebb 88fe febd 71a4 273d 2133 3c3d
00000190: 1ad3 8bbd 010d 463c e4f9 0c3d e2f4 5abc
000001a0: dfd6 d3bd 3536 76bd aa7d 853d dcd4 da3a
000001b0: d6e4 2ebd 1ff4 2bbd 06d4 63bb 7de4 ebbd
000001c0: 23a1 0a3d f72c bfbc 4c5d 6dbd 1493 e3bc
000001d0: 2f77 2abe 47a4 03be 83ad 2abd 349a 45bd
000001e0: b745 74bd df11 39bc 44f0 223c 1bcc e8bd
000001f0: b809 d3bd 05bb c9bc 5ae6 83bc 5d5d 52bd
-0.08981572 -0.07099959 0.007525787 0.09945255 0.017185096 -0.041142147 -0.02831168 0.09053502
0.015430998 -0.15356453 -0.02647285 0.017600592 0.0028574036 -0.032941744 -0.0487602 -0.17223935
0.01639402 -0.039107885 -0.078481816 0.05713863 0.037553936 0.0054604746 -0.0004673763 -0.055842195
-0.050830442 -0.011148305 -0.068733886 0.03733918 -0.08132529 -0.029734567 0.032080498 0.00923852
0.047266684 -0.04703667 -0.08203332 -0.0719679 -0.06839738 -0.16151206 0.02928112 -0.0155275995
0.061594564 -0.06426794 -0.104482 -0.06792256 0.0020173807 -0.10480907 -0.13142592 0.028762808
0.036016967 0.059941072 -0.0054878346 -0.05250245 0.024712235 -0.0590222 -0.0070009106 -0.089436114
-0.05040303 0.03455834 -0.1096521 -0.060866848 0.007260266 -0.17947386 0.03268298 0.0175251
0.07605433 -0.13427565 -0.051357765 0.057340905 -0.12230995 -0.009445475 -0.03218714 0.020918436
0.024698606 0.030197337 -0.025551109 0.061622113 -0.017895821 0.041468136 -0.020957364 -0.037223693
-0.0411014 -0.053679675 -0.030390197 0.029922733 -0.09119149 -0.02832507 -0.0022551299 0.010829116
-0.07646535 -0.09200129 -0.1088824 0.012118159 0.009969441 0.119561456 -0.0007752202 -0.114566885
-0.005310868 -0.12450892 0.040928308 0.045947198 -0.06827374 0.012088061 0.034418 -0.013364049
-0.10343718 -0.06011029 0.06518109 0.0016695517 -0.042698704 -0.04198086 -0.0034763827 -0.1151819
0.03384508 -0.02333687 -0.057950303 -0.027780093 -0.16647027 -0.12855636 -0.04166938 -0.048242763
-0.059636798 -0.011295765 0.009944979 -0.11367055 -0.10304588 -0.02462531 -0.016101051 -0.05135857

network_body._body_endoder.seq_layers.0.weight f4 [128, 8]
00000000: 292b 5e3e 7c35 eebd eb32 19be 619d 1bbe
00000010: c109 92be 8e9a 51bf 798c cdbe 1123 45be
00000020: 5f51 cdbe d444 6fbb c7e3 18be b9b6 173d
00000030: 9157 a7be 712c 5d3f 3667 613e 23e8 d03b
00000040: 790e 0cbe f468 b8be ca48 233f c7b0 04bf
00000050: 9c6a fe3e f3df 02bf 6eac 2fbe 95c8 c53e
00000060: f5a4 5abe f5d4 5abe 7989 c7be 4d75 8d3e
00000070: 64b4 9c3e 78c0 e53e 5674 d4bb 0a07 e73d
00000080: 3abd e43e ee15 adbd a545 153f df35 013f
00000090: 4da1 79be acd8 3bbe 56df e13d 34e5 30be
000000a0: 3254 8a3e e1a6 1e3c e488 c3bd e535 04bf
000000b0: d083 a0be 5442 113e 5edd f83e 060b 8f3e
000000c0: 941f d23c 621f 3cbf b7ab 003f acab 27bd
000000d0: b40a af3e 57bb 4ebd b402 543e f150 34bf
000000e0: 0dec 16bd 7a83 4a3f 1011 213f b14b e63d
000000f0: f5b8 2c3e 0a74 24bf 5d6b 92bd d5c5 b1bc
00000100: 8250 ef3e 899b d73d 31c3 a03e 2e29 953e
00000110: 64be c8be da46 723e 960a 03bb ce17 243e
00000120: 49d4 c5bd 68d0 44be e5ef 9a3b 433c 0dbe
00000130: 7b76 c7be 0b30 953c d718 7cbe f35e f1be
00000140: ad99 ee3e 5bea 43be f35c bc3d 5484 3bbf
00000150: 5023 92be 31a6 a4bd 9841 ac3e c796 98be
00000160: 0e34 57bf b114 04bf bff5 b1bd 6e55 683e
00000170: 1d4c 5dbd 3869 c7be 975d 2bbe 882b 0cbf
00000180: 5bc3 c8be 3259 afbd ef75 f73e 92d2 563d
00000190: 0bdf 4cbd e13a 06bd ea02 5c3e 0e16 2dbf
000001a0: 4629 463c 0a5c de3e ca93 653e bf47 113e
000001b0: 6c7f 353e 73d0 033e 9b0c 95be 10d2 b3be
000001c0: 81af 94bd 0804 80be 8ccd eebe 5f96 96be
000001d0: ce58 27bf 9c94 ac3d a147 e5be cbfa 8a3e
000001e0: 36a2 08be a259 61be d6c0 0a3e feec 0d3e
000001f0: 124d b4be cf1e 8d3c e154 073e 2c36 fd3d
00000200: 7e34 a03d ea8e 0c3e f929 bebc ba55 59be
00000210: bd1e 82be 70c0 6a3e 8676 0f3f 666c 08bd
00000220: fa91 233e 0eb0 043e f305 523e a6e8 61bd
00000230: 6eed 813e 590f f9be 9b8d c6be 04de a53d
00000240: c8ca d43e 2bfc c6bd 5172 0c3f 9b1e 023e
00000250: a3ca d13e 9fae 34be ccd5 ccbe 9899 b0bc
00000260: d7fe bebe 2951 1e3d 0a12 05bd 7bbf f43e
00000270: 2ce4 b83e b537 a0bd 1667 313e 79bc 36bd
00000280: e1ea d13c ace3 76bf 600c cebe 0d9a 8fbe
00000290: 487f f9be 5cf3 b13e cf19 93be 0d18 ff3d
000002a0: 1a6b 9ebe 3bd8 003f 761c ae3c 81ea 28be
000002b0: e48b 8e3e faa6 03bf b14a 283d 76d4 593e
000002c0: cd02 dd3d 7069 43bd dd63 7c3e 77e0 d9bd
000002d0: 6c31 38be c7fe 8ebe 5bd0 433b 6619 cb3d
000002e0: b3a6 b9be b920 eabc 7d57 253e c7d8 bf3c
000002f0: 0a54 dfbe dccf 26be df2b 5ebe f9cf 84be
00000300: 8264 9cbc 7cad 1dbf 0eef a03e cbd4 a8be
00000310: 41d8 c23d a56e edbd 7f83 a2bd a239 84be
00000320: 0adb 86bd b6a4 903d 32aa 80be 69db 543d
00000330: 540a 26bd 7da2 643e 2091 e4bb 791c adbe
00000340: 1f1d a1be 1cb4 923e a269 19bf 86cd 2fbe
00000350: aa08 c1be a640 bebe 9ded bfbd 9ed9 bbbe
00000360: 46a3 a5bd 8a4a af3d d1be 6ebe ce40 883e
00000370: e676 85bd 71df 4d3e a338 f23e d093 9d3e
00000380: ad20 67be d0fd 6b3d e665 2a3f 42cd 0dbe
00000390: 0a2f 56bf 39e2 cf3e 68b6 debe afde 88bd
000003a0: 9d9f abbe 9bd8 b3be b06f 353e 9081 5dbd
000003b0: 9e35 303e 543a 653f a4f8 7dbf 1275 bbbd
000003c0: 60dc 623f 34d9 65bf 79f2 1a3e 694d 9dbc
000003d0: 8bc7 1a3f 9cd0 6c3e 1a50 16bf f1aa a03c
000003e0: de92 8ebe 443d 1e3f 11ba f9bc f863 d93e
000003f0: c587 2e3d 1440 2bbe 341e 8dbd 4c60 903f
0.21696152 -0.11631295 -0.1496083 -0.15196754 -0.28523067 -0.81876457 -0.40146235 -0.19251658
-0.40101144 -0.003650953 -0.1493064 0.037039492 -0.32683995 0.8639594 0.22012028 0.006375329
-0.13677396 -0.36017573 0.6378294 -0.5183224 0.49690711 -0.5112297 -0.1715562 0.38629594
-0.21351989 -0.21370299 -0.3897207 0.27628556 0.30606377 0.44873405 -0.006483595 0.112806395
0.44675618 -0.084514484 0.58309394 0.50472826 -0.24377938 -0.18344373 0.11028926 -0.17274934
0.2701736 0.009683342 -0.09547594 -0.51644737 -0.31350565 0.14185458 0.4860639 0.27938098
0.025649823 -0.73485386 0.50262016 -0.040935203 0.34187853 -0.05047163 0.20704156 -0.70436007
-0.03684621 0.7910687 0.6291666 0.11244906 0.1686743 -0.6423956 -0.07149384 -0.021700779
0.4674111 0.10527713 0.3139892 0.2913298 -0.39207757 0.2365984 -0.0019995323 0.16024706
-0.09659631 -0.19220126 0.0047283047 -0.1379252 -0.3895758 0.018211385 -0.2461885 -0.47142753
0.4660162 -0.19132368 0.09197416 -0.7324879 -0.28542566 -0.08039511 0.33643794 -0.29802534
-0.84063804 -0.5159407 -0.086894505 0.22688839 -0.054027665 -0.38947463 -0.1673492 -0.54753923
-0.39211544 -0.085619345 0.48332164 0.05244691 -0.050017398 -0.032770995 0.21485487 -0.6761178
0.012094801 0.43429595 0.22419658 0.14187525 0.17724389 0.12872486 -0.2911118 -0.35121202
-0.07260037 -0.25003076 -0.46641195 -0.294116 -0.6536988 0.084267825 -0.4478121 0.27144465
-0.13343129 -0.22006848 0.13550124 0.13859937 -0.3521505 0.017226605 0.13215972 0.12363848
0.07822512 0.13726392 -0.023213373 -0.21224108 -0.25414076 0.22924972 0.5604023 -0.0333065
0.15973654 0.12957785 0.20510082 -0.05515351 0.25376457 -0.48644522 -0.3877991 0.08098987
0.4156096 -0.09716066 0.54861933 0.12706988 0.40974912 -0.17644738 -0.40006864 -0.021557614
-0.37303802 0.03865162 -0.032487907 0.47802338 0.3611158 -0.07823125 0.1732448 -0.044613335
0.025624694 -0.9644115 -0.40243816 -0.2804722 -0.4872992 0.3475598 -0.28730628 0.12455759
-0.30941087 0.5032994 0.021253806 -0.16495706 0.27841103 -0.5142666 0.041086856 0.21272454
0.1079155 -0.047707975 0.2464747 -0.106385164 -0.17987603 -0.27928755 0.0029878828 0.09916954
-0.36259994 -0.028580057 0.16146655 0.023418797 -0.43618804 -0.1629023 -0.21696423 -0.2593992
-0.019090895 -0.6159284 0.31432384 -0.32974848 0.095139034 -0.115933694 -0.07935237 -0.2582522
-0.06584747 0.07062666 -0.2512985 0.05196706 -0.040537193 0.2232761 -0.006975308 -0.33810785
-0.3146753 0.28653038 -0.5992681 -0.17168245 -0.37701923 -0.37158698 -0.09371493 -0.36689466
-0.080877826 0.08559139 -0.23314978 0.26611942 -0.06516819 0.20104767 0.47308835 0.30776834
-0.22571059 0.0576151 0.66561735 -0.13847831 -0.83665526 0.40602282 -0.4349854 -0.066830985
-0.33520213 -0.35126194 0.17718387 -0.05407864 0.17207953 0.89542127 -0.9920752 -0.09153189
0.88617516 -0.8978455 0.15131558 -0.019201951 0.6046073 0.23126453 -0.58715975 0.019612761
-0.27846426 0.61812234 -0.030484231 0.42459083 0.04260995 -0.16723663 -0.068905264 1.1279387

network_body._body_endoder.seq_layers.2.bias f4 [128]
00000000: 712f 863d 1fe2 b43d ab69 29bd 1756 523b
00000010: 18f3 57bd d502 f43d 5808 2b3d bcf5 3fbc
00000020: 5ae4 3e3d 8d2f 933d f51b 78bd e33d 2ebd
00000030: c2de 1dbb 3f41 a9ba bf66 863d d03e 013d
00000040: 11b8 f43b ee0e 9d3d 9f73 75bd b460 153d
00000050: fd8b 51bd 8767 00ba 4ecf c0bd 0ba4 a9bc
00000060: 7418 643d c47d 67bc 3c24 0ebc 55b3 78bd
00000070: d6c9 75bb 0bb0 1e3b 7ef3 b23d 2b76 3b3d
00000080: e4cd 18bd e8a4 d5bb 773a c43d c8e0 edbc
00000090: ca75 09bb b9eb 92bd 23a0 a43d cc4b eb3b
000000a0: 41e4 4c3d a05a e23c fc99 2abd 2024 6fbc
000000b0: 0564 50bd cfba 9b3d 3bd4 053a 68e2 7cbd
000000c0: 73c3 a33d 0610 0dbc ea67 86bd 0753 36bc
000000d0: 9009 883c bf23 123d 1dec 0cbc fa7e 6cbd
000000e0: efd1 833d 1fec 773d 3f42 433c e9b9 05bd
000000f0: 9891 17bb ca37 6b3d 2e8c 6d3d 209c 983a
00000100: 47ce 8fbd 22a8 233d f9c4 34bd 1c10 ae3d
00000110: c103 393d 406c 7c3c bd23 1139 996d 7d3d
00000120: ef72 6fbc 46a0 823d 949d ddbc 6977 cd3c
00000130: c80b 743d ba46 163c 8f90 c23d 3d24 a13c
00000140: dbf5 4a3d b334 1ebd 6816 8b3d 45c4 8b3d
00000150: defb 6c3c 6d70 9d3b 7cf3 c73b 41fe 063d
00000160: 7fd0 843d 7dc0 f63c 52d8 113e f6ff b0bd
00000170: 22ac 8fbc 58af c43b 5475 a73a 1a4c 763c
00000180: 42fc 96bd 790d d03d d084 ad3c 5f25 783d
00000190: 29ed b7bc c0e8 0d3c e2b8 67bd a705 af3c
000001a0: 80da b53c 76dd 9f3d 9a98 48bd 5c7c 963c
000001b0: a435 28bd 7b49 533c ac31 dfbb 49cd 7c3d
000001c0: 9759 243d 4563 2ebd 8091 293d eb2f 423d
000001d0: 3058 19bd e7ea af3d 5d9f 11bc 7070 093d
000001e0: 390d c8bb 32aa acbb b0e5 db3c 8181 7d3d
000001f0: d1ee 02be 7b6d ec3c cd5b 1ebd 111f ab3c
0.065520175 0.08832192 -0.04136054 0.003209477 -0.052722067 0.11914603 0.041756004 -0.0117163025
0.04660449 0.07186804 -0.060573537 -0.04253949 -0.0024089073 -0.0012913122 0.06562566 0.031554043
0.0074682315 0.07668863 -0.059924718 0.036469176 -0.051158894 -0.0004898239 -0.0941454 -0.020708105
0.055687383 -0.014129106 -0.008675631 -0.0607179 -0.0037504337 0.0024213817 0.08737849 0.04576699
-0.037305728 -0.0065199025 0.09581464 -0.029037848 -0.0020974749 -0.07173867 0.08038356 0.0071806666
0.050022367 0.027631104 -0.041650757 -0.014596015 -0.050876636 0.0760399 0.0005105172 -0.061739355
0.07996263 -0.008609777 -0.06562789 -0.011128194 0.016606122 0.03567862 -0.008601216 -0.05773828
0.06436526 0.060527917 0.01191765 -0.032648 -0.0023127552 0.05742625 0.057995014 0.0011643209
-0.07021766 0.039955266 -0.04413316 0.08499166 0.045169596 0.015406668 0.00013841591 0.0618721
-0.014614805 0.06378226 -0.027052678 0.025081353 0.059581548 0.009172136 0.095002286 0.0196706
0.049550872 -0.038624477 0.06791383 0.06824545 0.014464347 0.004804662 0.0061020236 0.03295732
0.0648508 0.030121082 0.14242676 -0.08642571 -0.017538134 0.006002348 0.0012776055 0.015032792
-0.07372333 0.1015882 0.021181494 0.060582515 -0.022451954 0.008661449 -0.056572802 0.021365
0.022198915 0.07805912 -0.048973657 0.018369846 -0.04106678 0.012895937 -0.0068113413 0.061719213
0.040124502 -0.04257514 0.041398525 0.04740898 -0.037437618 0.08589726 -0.008888093 0.033554494
-0.006105092 -0.0052693123 0.026842922 0.061891083 -0.12786414 0.028860798 -0.038661767 0.020888837

network_body._body_endoder.seq_layers.2.weight f4 [128, 128]
00000000: 441f ddbc 39dd 0fbd 1326 ae3d 300e 2c3e
00000010: 69e5 34bd 5290 6abd 413c b8bc 8a9c 3abe
00000020: 43c2 383e dc65 4f3e 502e 833c 136e 70bd
00000030: e4b9 92bd 6ff5 2f3d 539d 093d 6365 91bd
00000040: 25db 003d 86fa 33be e37c 933d 6f42 88be
00000050: 5a00 53bc 0af1 e43d 08c6 90bd 2809 a63a
00000060: b14f d0bc 2f0d cb3c f474 16bd 9388 74bd
00000070: 1d8a aa3b aa2b 813c dba6 5c3d 67b0 cd3c
00000080: 73b2 d23c 319a cfbd 4a65 18bc 550d c2bd
00000090: 366d 343e 6aa9 4c3b 3a5e dc3c b204 1d3e
000000a0: 0803 f03d 891b 653c 658e 06bd e7b9 5bbd
000000b0: 2267 083d 9f6b 5dbe 6e8d fbbd 7cf0 183e
000000c0: feca 973d 4f71 e53d a3e5 8c3c cd81 773d
000000d0: af89 5f3d a562 09bd 9125 17be 6035 21be
000000e0: b70f fc3c 9102 46bb ea65 253c c32b 84bc
000000f0: f7aa f5bd 76ad bf3d a491 35be 0470 813d
00000100: b907 4abe 974a d33d 20d3 f33b 6763 183e
00000110: f7b3 5abd 7d4d cc3c db95 45bd bd7a 01be
00000120: a2a6 87bc 1d62 93bc a50a 86be 5754 98bc
00000130: b371 263d 7433 a13c 68cf a0be 2e49 a33d
00000140: 0d0c 253e 68a3 283e 1366 8f3e 629a 61bd
00000150: 642d 25be 3963 2e3e b97c 263e 53b0 0e3d
00000160: afe7 c3bd 4cf2 c7bc bad3 c43d 3e27 de3d
00000170: 7090 26be bbe8 68bd 2ee3 8abd 8ee4 063e
00000180: 1662 ac3b 75be b9bd 4158 e2bb 6e90 4cbc
00000190: 3099 ecbb 759f 4bbe 5f83 80bd 0af7 6fbd
000001a0: d8d0 76bc 0a87 913c 7926 403e 7ab5 b93d
000001b0: 5a16 d2bd 9f16 34bd ff85 47bd 0e20 c5bd
000001c0: 4918 e43b dc54 c7bd 7e01 b8bc 4856 b9bd
000001d0: 9e66 cabc 8984 21bc d81f 173e 8d38 883d
000001e0: 7080 3cbb ac83 c13d 2210 81be f5ae 99be
000001f0: d2fa b4bc 1b50 283c 1841 5e3d 4a49 a3bd
00000200: 513c ea3c e045 b0bd 4bbf 343e 47ea f339
00000210: 8ee6 82bd 8ef6 1cbe a027 55bb f124 253d
00000220: dc2e ef3d 1bdb fa3c 6f7a ac3d 38ef 043d
00000230: 7878 cebc e103 123d 45fd 11bd 80fc 64bd
00000240: b13c 7dbd 84ae fe3d cafd 9e3d 2bef b2be
00000250: 01c3 abbb 13a7 54bc ceed b13d 11f0 923b
00000260: 75c9 3b3d e41b bebc 9ef9 fc3d d2cb 44bd
00000270: 9225 f33d 27bc 823d 7c14 d63e c84f 603d
00000280: 7533 ccbb 7e2b 4b3e 6e08 d83d fcb7 d0bd
00000290: d918 ee3d 6d72 14bd 625c 9fbc 6a0e 08be
000002a0: 1b32 053e 2143 0b3c 9f0a 62be a635 ffbd
000002b0: 789f 043e ba66 603c 57ba cb3d cd63 893d
000002c0: 77b5 a83d 0480 ab3d d2df 8bbc d803 8bbd
000002d0: f41c 42be 3ab9 30be 0237 4ebe 936c d83d
000002e0: 90d7 613d a67c 12bc 1011 7f3c 7c89 093d
000002f0: 84b0 13be 9f31 67bd df1c 0ebe 47f2 533e
00000300: f559 f6bd de8d 28be 4929 27be 329b a73d
00000310: 99aa f9bd 7f97 ae3d 6ccb 13bd b405 bfbe
00000320: 7755 b23d 4c25 473d 7b81 d6bc 4b1d ccbd
00000330: c3c2 5e3d 4d49 c63d 3713 18be 8c67 023e
00000340: daa1 203e 9ee3 38bc ba03 98bb 71a1 0f3c
00000350: bb13 093d 56ec 1ebd 60c3 313d 3450 2abe
00000360: de7f fdbd 3534 d7bd a4a6 4abd 4ef5 193e
00000370: 09f4 2cbe 36f7 8b3e b7ad 69bd 4742 79bd
00000380: a76f 203b e0e9 7d3d 8020 9b3c 06f3 443e
00000390: 5ead a33d 1c21 bcbd af1b 49bd 667f f8bc
000003a0: 4cd1 f8bd d894 f53b 2b63 bc3d 84ed 2c3d
000003b0: b792 ecbd 9203 1abd b47c c83d ce09 d33d
000003c0: 81da 82bc 1e73 de3c 66af 80bd 89cd 113b
000003d0: 4741 3c3c 7982 e73d 86a0 30bd b5c0 a0bc
000003e0: 68bc dbbd 8bd0 903d c55b 083e 7957 06be
000003f0: b741 793a f7a0 74bd 5470 09bd 2da9 8fbe
-0.026992448 -0.035123084 0.08503356 0.16802287 -0.044164095 -0.05726654 -0.022489669 -0.18223777
0.18042855 0.202537 0.016013294 -0.058698725 -0.07164362 0.042958673 0.0335973 -0.07099416
0.031458993 -0.17576036 0.072015546 -0.26613185 -0.012878502 0.11178787 -0.070690215 0.0012667524
-0.025428625 0.02478656 -0.03673263 -0.05970056 0.0052044527 0.015767891 0.053870063 0.02510853
0.025719857 -0.101368316 -0.009301493 -0.09475199 0.17619786 0.0031228908 0.0269004 0.15333822
0.11719328 0.013983616 -0.03285064 -0.053644087 0.03330148 -0.21623085 -0.12282835 0.14935488
0.074117646 0.112032525 0.017199343 0.060426522 0.054574665 -0.03354134 -0.14760424 -0.15743017
0.030769212 -0.0030213932 0.010095099 -0.016134148 -0.119954996 0.09359257 -0.17731339 0.063201934
-0.19729508 0.10316961 0.0074409395 0.14881669 -0.053394284 0.024939293 -0.048238616 -0.12644477
-0.016558949 -0.01799112 -0.26179996 -0.018594904 0.040635776 0.019677855 -0.31408238 0.07972942
0.16117878 0.16468585 0.28007564 -0.05507887 -0.16130596 0.17030038 0.16258515 0.034836125
-0.095656745 -0.024407528 0.09610696 0.108473286 -0.16266036 -0.056862574 -0.06781612 0.13173124
0.005260716 -0.0906953 -0.0069074933 -0.012485607 -0.00722041 -0.19885047 -0.06275057 -0.058585204
-0.015064441 0.017764587 0.18764676 0.09067817 -0.102581695 -0.043966886 -0.048711773 -0.096252546
0.006960903 -0.097329825 -0.022461649 -0.0904966 -0.024707135 -0.009858259 0.14758241 0.06651411
-0.0028763078 0.094489425 -0.2520762 -0.30016294 -0.022092257 0.010273005 0.054261297 -0.07972963
0.028593214 -0.086070776 0.17651097 0.00046523122 -0.06391631 -0.15328428 -0.003252484 0.040318433
0.116788596 0.030622056 0.0842179 0.0324547 -0.025203928 0.03564823 -0.035641927 -0.055904865
-0.061825458 0.1243563 0.0776325 -0.34948096 -0.005241752 -0.012979287 0.08687936 0.0044841846
0.04584642 -0.023206659 0.12352298 -0.04804594 0.118724 0.063835435 0.41812503 0.054763585
-0.00623172 0.1984081 0.10548483 -0.10191342 0.11625833 -0.036241937 -0.019453231 -0.13286749
0.13007395 0.0084998915 -0.22074364 -0.124614045 0.12951458 0.013696367 0.09947651 0.067084886
0.08237737 0.083740264 -0.0170745 -0.067878425 -0.18956357 -0.17258158 -0.20138171 0.10567584
0.055137217 -0.008940851 0.015568033 0.03357838 -0.14422804 -0.056443807 -0.13878201 0.2069789
-0.12028877 -0.16460368 -0.16324343 0.08183898 -0.12190742 0.08524989 -0.03608267 -0.3730904
0.087077074 0.048619553 -0.026184788 -0.09966525 0.054384958 0.0968195 -0.1485108 0.12734812
0.15686741 -0.011284737 -0.004639116 0.008766518 0.033466082 -0.038799606 0.043399215 -0.16632158
-0.12377904 -0.105080046 -0.049475327 0.15034983 -0.16889967 0.27337044 -0.057050433 -0.060854223
0.0024480612 0.06199062 0.018936396 0.19233331 0.079920515 -0.091860026 -0.049098667 -0.030334186
-0.12149295 0.00749455 0.09198602 0.0422187 -0.11551421 -0.03760106 0.0978941 0.103046045
-0.015973331 0.027154502 -0.062834546 0.0022247753 0.011490173 0.113041826 -0.043121837 -0.01962314
-0.10729295 0.070710264 0.13316257 -0.13119306 0.00095083885 -0.05972382 -0.03355439 -0.28058758
